hyperparam/hofield_20241121_165525/snn_model_default.pth (torch, 327164 bytes, 6 tensors)

0.weight f4 [256, 20]
0	0x3cabb6ea	0.020961244
1	0x3e467750	0.19381452
2	0xbdc1253c	-0.0943093
3	0xbe11ebe9	-0.14250149
4	0xbe207532	-0.15669706
5	0xbda6d379	-0.08145804
6	0x3e63e1da	0.22254124
7	0x3dfc4cd3	0.123193406
8	0xbdc60e04	-0.09670642
9	0x3d53718f	0.05162197
10	0x3da3983a	0.07988019
11	0x3e496c07	0.19670115
12	0xbdf4e9b9	-0.119586416
13	0x3daa379d	0.08311389
14	0x3e640a6e	0.22269604
15	0xbdcf2e02	-0.10116197
16	0xbe57c3ec	-0.21070832
17	0x3caf6b83	0.02141357
18	0x3d30052f	0.042973693
19	0x3e53cd7d	0.20683856
20	0xbe1cb751	-0.15304305
21	0xbe0c4bfb	-0.13700859
22	0xbb88c578	-0.0041739307
23	0x3dc78ec6	0.09744029
24	0xbd698148	-0.057008058
25	0xbe61c3d3	-0.22047357
26	0xbe3b077a	-0.18264571
27	0x3b39ed64	0.0028370256
28	0xbd8f9275	-0.07010356
29	0x3e15b41a	0.14619485
30	0xbd9f41b6	-0.07776205
31	0x3c4987ca	0.012300441
32	0xbe314569	-0.17311634
33	0xbd5e2201	-0.054231647
34	0xbdd7b873	-0.10533228
35	0xbe40dd38	-0.18834388
36	0xbe1f2f70	-0.1554544
37	0xbe3379c6	-0.17526922
38	0x3d214539	0.039372656
39	0x3dd10be2	0.102073446
40	0xbc3d6555	-0.011559804
41	0xbe1603f9	-0.14649953
42	0xbd2d81e6	-0.04236021
43	0xbdb3fc1c	-0.087883204
44	0xbe07f792	-0.13278034
45	0xbe521b71	-0.2051828
46	0x3d415b23	0.047206055
47	0xbc47099e	-0.012148289
48	0xbe16a428	-0.14711058
49	0xbe121e1e	-0.14269301
50	0xbe5b642c	-0.21424931
51	0xbd144101	-0.036194805
52	0x3ddbdf6c	0.10735974
53	0xbe12ecb9	-0.14348115
54	0xbe4c79ed	-0.19968386
55	0xbab18329	-0.0013543117
56	0x3e61bbf3	0.22044353
57	0x3caf0976	0.021366816
58	0x3e45333f	0.1925783
59	0xbdbfbaab	-0.09361776
60	0xbe3ee1ab	-0.18640773
61	0x3e196ec1	0.14983656
62	0x3e277e9a	0.16356888
63	0xbe47e929	-0.19522537
64	0x3dd06ebf	0.10177373
65	0x3e0cba37	0.1374291
66	0x3d5fcd34	0.054639056
67	0x3badd673	0.0053051054
68	0x3e07eee4	0.13274723
69	0xbe0e2d0b	-0.1388437
70	0xbbd20f6c	-0.00641053
71	0x3e2a6e27	0.16643582
72	0x3dd4db09	0.1039334
73	0x3da3a0bc	0.07989642
74	0x3dc1543f	0.09439897
75	0xbe414027	-0.18872128
76	0xbe25c4c6	-0.16188344
77	0x3cbc2740	0.022967935
78	0xbda58723	-0.08082416
79	0x3e4b16cd	0.19832917
80	0x3d4f40b2	0.050598808
81	0x3dd411cd	0.10354958
82	0xbdbcf173	-0.0922574
83	0xbd709a7a	-0.05874107
84	0x3e64c85b	0.22342055
85	0xbe17a0c2	-0.14807418
86	0xbd01bccb	-0.031674188
87	0xbe0a0396	-0.1347793
88	0xbe3b713e	-0.18304917
89	0x3dc43284	0.095799476
90	0x3e30f61c	0.17281383
91	0xbe2c1014	-0.16803008
92	0xbe031edc	-0.1280474
93	0x3e154bcc	0.14579695
94	0x3e60bec7	0.21947776
95	0xbc972597	-0.018450541
96	0xbd58793a	-0.052849986
97	0x3e567f0b	0.209469
98	0x3d6a4970	0.05719894
99	0xbda40893	-0.08009448
100	0x3deb9259	0.11502523
101	0xbe57963d	-0.21053405
102	0x3e21389f	0.15744255
103	0x3e0dbdcf	0.13841937
104	0x3cf06840	0.029346585
105	0xbe39bdbe	-0.18138787
106	0x3b8c616a	0.0042840736
107	0x3df1666b	0.11787113
108	0xbdcf3731	-0.10117949
109	0x3d1f0b23	0.03882898
110	0x3dd9f587	0.10642534
111	0x3ddf1c3c	0.10894057
112	0xbd35e266	-0.044405364
113	0xbd6b4241	-0.05743623
114	0xbcfe0647	-0.031008853
115	0x3e5b5736	0.21419987
116	0x3e03b567	0.12862168
117	0x3c9317e3	0.017955726
118	0xbe1b5034	-0.15167314
119	0x3e55a4c8	0.2086364
120	0xbe5bafd0	-0.21453786
121	0x3d55a11b	0.052155595
122	0x3d40d11e	0.04707443
123	0x3e6300a2	0.2216821
124	0xbe576ada	-0.21036854
125	0xbe4d679e	-0.20059058
126	0x3bd28c6b	0.0064254305
127	0x3e5adc7e	0.21373174
128	0x3e42369a	0.18966141
129	0xba8426d0	-0.0010082368
130	0xbe06ee2b	-0.13176791
131	0xbe4cef65	-0.20013197
132	0x3e20928f	0.15680908
133	0x3de3a68b	0.1111575
134	0x3d991bc5	0.07476
135	0x3ba37994	0.0049888585
136	0x3d5daf6f	0.054122385
137	0xbe5adfac	-0.21374387
138	0x3db9e525	0.09076909
139	0x3ddbafb2	0.107268706
140	0x3d0f3da4	0.034970894
141	0xbe1ff34a	-0.15620151
142	0xbde62ac8	-0.112386286
143	0x3dc9114b	0.098177515
144	0x3d3e9c25	0.04653563
145	0xbd781a56	-0.06057199
146	0xbdf4a32d	-0.11945186
147	0x3e33d816	0.17562899
148	0x3de53ac8	0.11192852
149	0xbe450712	-0.19240978
150	0xbe1eb12b	-0.15497272
151	0xbc1d095f	-0.009584754
152	0xbe57f936	-0.2109116
153	0x3e4d0ed3	0.20025186
154	0xbe3d753e	-0.18501756
155	0x3e33b16b	0.17548148
156	0x3e5a2c4a	0.21305957
157	0x3c58c49c	0.013230469
158	0xbe2057cf	-0.15658496
159	0x3d86fe18	0.06591433
160	0xbe10cf3a	-0.1414155
161	0x3d0dd7fc	0.034629807
162	0x3e48c1f6	0.1960524
163	0x3e4f1b87	0.20225345
164	0x3e1684e1	0.14699127
165	0xbe4aa6c1	-0.19790174
166	0xbc1b2645	-0.009469573
167	0x3e57681d	0.2103581
168	0x3e2ae16a	0.16687551
169	0x3e57372d	0.21017142
170	0xbdfdf25d	-0.12399743
171	0x3b164957	0.0022931898
172	0xbdc13100	-0.09433174
173	0x3d2089c1	0.039193872
174	0x3d8f9ecd	0.07012711
175	0x3c2eeb63	0.010676238
176	0x3dfe864f	0.12427961
177	0x3d38712d	0.045029808
178	0xbe2f38dd	-0.17111535
179	0xbdb4d566	-0.08829765
180	0xbe4bf67c	-0.19918245
181	0x3deec625	0.11658887
182	0x3e318a6a	0.17337957
183	0x3e4ff24b	0.20307271
184	0x3e5bc090	0.21460176
185	0xbe394c5f	-0.1809554
186	0x3e2c1ab0	0.16807055
187	0x3da1bb86	0.078970954
188	0xbde71f4b	-0.112852655
189	0x3d9aadf8	0.07552713
190	0xbdf4c910	-0.11952412
191	0x3db29ad3	0.087209366
192	0xbe594876	-0.21219048
193	0xbe08a679	-0.13344754
194	0xbc86b313	-0.016442811
195	0xbe36f0b0	-0.17865252
196	0xbd335f40	-0.04379201
197	0xbdf28d83	-0.118433975
198	0xbe0b5bb6	-0.13609204
199	0x3e41f173	0.18939762
200	0x3d39141a	0.045185186
201	0xbd1904e4	-0.03735818
202	0x3d54d34e	0.05195933
203	0x3df572ab	0.11984762
204	0x3e061a46	0.1309596
205	0x3e078c78	0.13237178
206	0x3e2c512d	0.16827841
207	0x3e5b3701	0.21407701
208	0x3ce5ac4a	0.028036255
209	0x3d0acc04	0.03388597
210	0xbdbba83e	-0.09162949
211	0xbd832f3d	-0.06405494
212	0xbdc6f275	-0.09714214
213	0x3e0716cc	0.1319229
214	0xb9c02d13	-0.00036654677
215	0xbe54e2e7	-0.20789681
216	0xbe206a46	-0.1566554
217	0xbde68a99	-0.11256904
218	0x3c9b22f8	0.018937573
219	0x3e342029	0.17590393
220	0xbe171d08	-0.14757168
221	0x3dbd3e49	0.092403956
222	0xbdada1a3	-0.084780954
223	0xbe1072c7	-0.14106284
224	0x3dd05088	0.1017161
225	0x3d2ac438	0.041691035
226	0xbe489d89	-0.19591345
227	0x3e170ddc	0.1475138
228	0x3c59b8e7	0.013288713
229	0xbda56fd3	-0.080779694
230	0xbd7f0b41	-0.062266592
231	0x3e3e425b	0.1858
232	0xbda5b0f0	-0.08090389
233	0xbdb72d24	-0.08944157
234	0x3e1292ce	0.14313814
235	0x3e61e43b	0.2205972
236	0xbe1ef4bf	-0.1552305
237	0xbdc7efb9	-0.0976252
238	0xbdf5aed2	-0.11996235
239	0x3b39ac8b	0.0028331603
240	0xbdd77334	-0.1052002
241	0xbdef5b27	-0.11687308
242	0x3d914d21	0.07094789
243	0x3cd97082	0.026542906
244	0xbe613cc6	-0.2199584
245	0x3e4af0c3	0.19818406
246	0x3df1e49e	0.118111834
247	0xbc3f6564	-0.011681888
248	0xbd0e8e80	-0.034803867
249	0xbd950485	-0.07276253
250	0xbd956476	-0.07294552
251	0x3c9e0e27	0.019293858
252	0xbe5f4629	-0.21804108
253	0xbe5f0e2c	-0.2178275
254	0x3e48a9a6	0.19595966
255	0xbdd5bbfb	-0.10436245

0.bias f4 [256]
0	0x3e2f4b03	0.17118458
1	0x3d13e4e8	0.036106974
2	0x3e377f3b	0.17919628
3	0xbe347541	-0.17622854
4	0xbd8496ac	-0.06474051
5	0x3bcc5693	0.0062359064
6	0xbe273c26	-0.16331539
7	0xbe14f29b	-0.14545672
8	0x3dfae2a6	0.12250261
9	0x3e0fedc4	0.14055544
10	0x3e43df78	0.19128215
11	0x3b3477d9	0.0027537255
12	0xbe502135	-0.20325167
13	0x3d6758ea	0.05648128
14	0x3ddf9cc4	0.109185725
15	0xbe2b22f3	-0.16712551
16	0x3e49dc77	0.19713007
17	0xbd644b94	-0.05573614
18	0x3dcf2514	0.10114494
19	0x3d8780f6	0.06616394
20	0xbdca9bd5	-0.09893004
21	0x3e161a9e	0.14658591
22	0xbe3c6f6d	-0.1840188
23	0xbe109633	-0.14119796
24	0x3cd34a7c	0.025792353
25	0x3d845846	0.06462149
26	0xbd1a0713	-0.037604403
27	0x3e50612d	0.2034957
28	0xbd224d7f	-0.039624687
29	0x3e39d122	0.18146184
30	0x3e38d30b	0.18049257
31	0x3b8a36de	0.0042179665
32	0x3e30aaa8	0.172526
33	0x3c1e5619	0.009664082
34	0x3bf1b8b9	0.007376757
35	0x3e6169db	0.22013037
36	0x3e6318f5	0.22177489
37	0x3d455e06	0.04818537
38	0x3df1c122	0.11804415
39	0x3d158339	0.036502097
40	0xbe4c368d	-0.19942684
41	0x3d4e6a90	0.050394595
42	0xbe098340	-0.13428974
43	0xbdaaa046	-0.08331351
44	0x3dba6c62	0.09102704
45	0x3e15a20f	0.14612602
46	0x3e3fcd47	0.18730651
47	0xbdf43a31	-0.11925162
48	0x3ddc84c7	0.10767513
49	0xbe449794	-0.19198447
50	0xbd4b2561	-0.049596194
51	0xbd557d31	-0.052121345
52	0xbd019c74	-0.031643346
53	0x3e195eb1	0.14977528
54	0x3e452282	0.19251445
55	0xbd99b62f	-0.07505452
56	0x3e264875	0.16238578
57	0x3c3047e0	0.010759324
58	0x3e39536e	0.18098232
59	0x3e3f33d0	0.18672109
60	0x3d0b912e	0.034074
61	0xbe497011	-0.19671656
62	0x3e4bde85	0.19909103
63	0x3e622a3c	0.22086424
64	0xbcc1e505	-0.023668775
65	0xbd58ae47	-0.05290058
66	0x3e29ee2f	0.16594766
67	0xbdfe4559	-0.12415571
68	0xbcc930dd	-0.024559433
69	0xbdf59b77	-0.11992543
70	0xbd95ed0b	-0.07320603
71	0x3e5469da	0.20743504
72	0xbd39ab1e	-0.045329206
73	0xbe437543	-0.190877
74	0xbdae4204	-0.08508685
75	0xbe5362a7	-0.20643102
76	0xbe64300f	-0.22283958
77	0x3e0be17d	0.13660236
78	0xbe35f5c8	-0.1776954
79	0xbdbc1943	-0.09184506
80	0x3d2c5bb0	0.042079628
81	0xbe546105	-0.20740135
82	0xbd8f021f	-0.069828264
83	0x3de17a4b	0.11009654
84	0x3d60e64e	0.054907136
85	0xbe16925e	-0.14704272
86	0xbd3c8304	-0.046023384
87	0x3b515765	0.003194296
88	0xbc406b59	-0.011744344
89	0xbe29faf0	-0.16599631
90	0x3e5e8445	0.21730144
91	0xbd7f00ff	-0.06225681
92	0xbdac1d3b	-0.08404013
93	0xbd860f1d	-0.065458514
94	0xbe293130	-0.1652267
95	0x3e009ba0	0.12559366
96	0x3d88bdf4	0.06676856
97	0xbbfa4ec7	-0.0076387855
98	0x3e0e9696	0.13924631
99	0xbda23e3c	-0.079220265
100	0xbe4f79b5	-0.20261271
101	0xbd9d2f37	-0.07675021
102	0xbe265b4a	-0.16245762
103	0x3d9d64c2	0.07685234
104	0xbce4549b	-0.027872374
105	0x3e23f07d	0.16009708
106	0xbe34b34b	-0.1764652
107	0xbe0112e5	-0.12604864
108	0x3c9b855c	0.01898449
109	0x3e5c4ed5	0.21514447
110	0xbe513b3d	-0.20432754
111	0x3dd1977c	0.102339715
112	0x3df54861	0.11976696
113	0xbe11c349	-0.14234652
114	0x3e055802	0.13021854
115	0xbd8aff06	-0.06786923
116	0xbdf6f261	-0.12057949
117	0x3e61d61e	0.22054335
118	0xbd855e33	-0.06512108
119	0xbe115a1f	-0.14194535
120	0xbd7b3b3d	-0.06133579
121	0xbd6bd798	-0.057578653
122	0xbdbd9eac	-0.0925878
123	0x3deeb214	0.116550595
124	0xbc4c34cf	-0.012463762
125	0x3deeeead	0.116666175
126	0xbe3133fc	-0.17304987
127	0xbe5be229	-0.21472992
128	0x3d8d1d3b	0.06890341
129	0xbe242880	-0.16031075
130	0x3e1acacd	0.15116425
131	0x3e434ff1	0.19073464
132	0xbd8c2ba3	-0.068442605
133	0x3ceda47a	0.029009093
134	0x3c46bb94	0.012129683
135	0xbdf34f48	-0.11880356
136	0xbd99febb	-0.07519289
137	0x3e60f346	0.21967801
138	0x3e104e21	0.14092304
139	0xbe5a8751	-0.21340682
140	0xbd770277	-0.060305085
141	0x3baf35f5	0.0053470084
142	0xbdd8f30d	-0.10593233
143	0xbd066eca	-0.0328205
144	0x3c4da1f5	0.012550821
145	0x3e4fea22	0.20304158
146	0x3e57123c	0.2100305
147	0xbe63270b	-0.22182862
148	0xbe054900	-0.13016129
149	0x3cedd6ad	0.02903303
150	0x3d92458b	0.071421705
151	0xbdefb38c	-0.11704168
152	0x3e237a28	0.15964568
153	0xbd63b78d	-0.05559497
154	0xbdd42c77	-0.103600435
155	0xbda8249e	-0.08210109
156	0xbe0022b3	-0.12513237
157	0xbe404d29	-0.18779434
158	0xbe4c5954	-0.19955951
159	0x3e1c19fe	0.1524429
160	0x3dde0ab8	0.10841888
161	0x3d415296	0.0471979
162	0xbda7a7a2	-0.0818627
163	0xbdd4bf56	-0.10388057
164	0x3e0aa81c	0.13540691
165	0x3dc5603f	0.09637498
166	0xbd216822	-0.03940595
167	0x3c9e8df2	0.019354794
168	0xbe369d57	-0.17833458
169	0x3d1a8e1b	0.03773318
170	0xbd5654d5	-0.052326996
171	0xbe33f17b	-0.17572586
172	0xbe61a30d	-0.22034855
173	0xbd84270d	-0.06452761
174	0xbe07452e	-0.13209984
175	0xbe12f8f2	-0.14352778
176	0x3daeaa38	0.085285604
177	0xbd38ff6b	-0.04516546
178	0x3d51048c	0.051029727
179	0xbd50c2d6	-0.05096706
180	0xbdc9f436	-0.09861033
181	0x3e3f20b7	0.18664823
182	0xbd6271de	-0.055284373
183	0xbe135a9f	-0.14390038
184	0xbd9d61fa	-0.07684703
185	0x3dfec61b	0.12440129
186	0x3d283249	0.04106358
187	0xbe1556d6	-0.14583907
188	0xbdd0344d	-0.101662256
189	0x3dc53ac4	0.09630349
190	0x3dea2a69	0.1143387
191	0xbdb6fa1e	-0.08934425
192	0xbc120708	-0.008912809
193	0xbdb1674f	-0.08662283
194	0x3d5e5185	0.05427696
195	0xbe43371b	-0.1906399
196	0xbe536bda	-0.20646611
197	0xbe01fa1a	-0.12693062
198	0x3deab38a	0.114600256
199	0x3c81d89b	0.015850356
200	0x3e2fe694	0.17177802
201	0xbc0a39c6	-0.008436626
202	0xbe49f6fa	-0.1972312
203	0x3c0c7eb5	0.008575131
204	0x3c81196b	0.01575919
205	0x3e29f4f8	0.16597354
206	0xbda45423	-0.0802386
207	0xbdf0e371	-0.11762131
208	0x3e157cc0	0.1459837
209	0x3e5acdca	0.21367565
210	0xbe1fc284	-0.15601546
211	0xbde1b260	-0.110203505
212	0x3d957de2	0.07299401
213	0x3df01e43	0.11724522
214	0x3e0f6f8a	0.14007393
215	0xbe26324b	-0.16230123
216	0x3e0b0c2d	0.13578863
217	0x3e54ee8d	0.20794125
218	0xbe00d359	-0.12580623
219	0x3e3e33ae	0.18574402
220	0xbe41d7f4	-0.18930036
221	0x3d714041	0.058899168
222	0xbd0d6725	-0.034522194
223	0x3e4c7bee	0.1996915
224	0xbd5a38f2	-0.053276964
225	0xbdc68deb	-0.096950375
226	0xbc3a9856	-0.011388859
227	0x3e1d17d6	0.15341124
228	0xbe5f431f	-0.21802948
229	0xbe0d4e3f	-0.1379938
230	0xbe4ad4af	-0.19807695
231	0xbe5048a8	-0.20340216
232	0xbe647996	-0.22312006
233	0x3de6e00b	0.112732016
234	0x3ddd5c96	0.10808675
235	0x3e520acc	0.20511931
236	0x3cedee28	0.029044226
237	0xbd9dd2a2	-0.07706191
238	0xbdaeb88e	-0.08531295
239	0x3ddb8c41	0.10720111
240	0xbdb94a85	-0.090474166
241	0xbe4f7296	-0.20258555
242	0xbd713bd6	-0.058894955
243	0x3e2a76f8	0.16646945
244	0xbdbcff2c	-0.09228358
245	0xbe55502f	-0.20831369
246	0x3ccc4f79	0.02494024
247	0xbe529fec	-0.20568818
248	0xbc70bc28	-0.014693297
249	0x3da7be7c	0.08190629
250	0x3ce4beb5	0.027922967
251	0xbe4ed0f4	-0.20196897
252	0xbdaca321	-0.08429552
253	0x3d489262	0.048967727
254	0xbdad0d1e	-0.084497675
255	0x3e24a854	0.16079837

2.weight f4 [256, 256]
0	0xbd496b28	-0.049174458
1	0xbd7b211a	-0.061310865
2	0x3d62388c	0.05522971
3	0x3d706a06	0.05869486
4	0x3d477996	0.048699938
5	0xbd00551e	-0.031331174
6	0x3c371f40	0.011176884
7	0xbd0a10f2	-0.033707567
8	0x3ca43e94	0.02004937
9	0xbc8dad50	-0.017294556
10	0x3d196ad4	0.037455395
11	0x3ce722a8	0.028214768
12	0xbd6eb120	-0.05827439
13	0xbb9c5120	-0.004770413
14	0x3d2f9390	0.042865336
15	0x3d0c51d2	0.034257717
16	0x3c883a70	0.016629428
17	0xbc5f07a8	-0.013612665
18	0xbd75a6d6	-0.05997356
19	0xbc8b953c	-0.017038934
20	0xbb631ca0	-0.0034654513
21	0x3d62b99c	0.055352792
22	0xbc4fde60	-0.012687296
23	0xbc6d2df8	-0.014476292
24	0xbd5b07a6	-0.05347409
25	0x3d0ffc22	0.035152562
26	0xbd351dc6	-0.044217847
27	0x3c467a08	0.012114055
28	0xbd4a0892	-0.04932458
29	0xbd308192	-0.043092318
30	0x3bd21d90	0.0064122155
31	0xbc3ccee0	-0.011523932
32	0x3d0eee80	0.03489542
33	0xbc2f86c0	-0.010713279
34	0x3d690d4c	0.056897447
35	0xbcf5e11c	-0.030014567
36	0xbba67aa0	-0.005080536
37	0xbd69e4f0	-0.057103097
38	0x3d41d58c	0.047322795
39	0xbd322ce4	-0.043499842
40	0xbc78ec88	-0.015193112
41	0x3be637c0	0.007025689
42	0x3d5c9540	0.053853273
43	0x3ce9f0a0	0.028557122
44	0xbcf35ba0	-0.029706776
45	0x3d78caae	0.060740165
46	0x3afa23c0	0.0019084141
47	0xbc1c2a78	-0.00953161
48	0x3bc54460	0.006020114
49	0xbc9f6f34	-0.019462205
50	0xbc8a8144	-0.016907342
51	0xbd54413c	-0.051820025
52	0x3d7b552c	0.061360523
53	0x39dbcf00	0.00041925162
54	0xbc40b150	-0.011761025
55	0xbc9f3bcc	-0.019437693
56	0x3c84b210	0.016198188
57	0x3b79d680	0.0038122237
58	0xbd47ad7a	-0.048749425
59	0xbd4adb32	-0.049525447
60	0xbbfb8660	-0.007675931
61	0x3c901ac8	0.017590895
62	0xbd6a6a8e	-0.057230525
63	0xbc8be9fc	-0.017079346
64	0xbc9c1818	-0.019054458
65	0xb9dc3500	-0.00042001158
66	0xbd16d61e	-0.03682529
67	0xbcffbce4	-0.031218
68	0x3b3fc7a0	0.0029263273
69	0x3d38f7fc	0.04515837
70	0x3d4dfd40	0.050290346
71	0xbcf90050	-0.030395657
72	0x3ce4034c	0.027833603
73	0x3cf03a28	0.029324606
74	0xbd185fbc	-0.037200674
75	0x3b87e660	0.004147336
76	0x3ce991a8	0.028511837
77	0xbd4aab8a	-0.04948
78	0xbd785036	-0.06062337
79	0xbc3a4de0	-0.011371106
80	0x3d249106	0.040177368
81	0xbcec7434	-0.028864004
82	0x3d092598	0.033483118
83	0x3d3b0f1c	0.045668706
84	0xbd34b5c8	-0.044118673
85	0xbd306890	-0.04306847
86	0x3d4d399e	0.050103776
87	0xbd3c1776	-0.04592081
88	0xbbe52060	-0.006992385
89	0xbca30464	-0.019899555
90	0x3a1e5a00	0.0006040633
91	0xbcc96d28	-0.024588183
92	0x3c2a3aa8	0.010389961
93	0xbc5ac7e0	-0.013353318
94	0x3b977b10	0.0046228245
95	0x3cd14d88	0.025549665
96	0xbd5ffcee	-0.054684572
97	0x3d040aba	0.032236792
98	0xbc69b918	-0.014265321
99	0x3cbe41a8	0.023224667
100	0x3cfbc668	0.030734256
101	0x3d79e300	0.0610075
102	0xbd5a25fa	-0.053258874
103	0xbd5aa526	-0.053380154
104	0x3bf3f2a0	0.0074446946
105	0xbc320ef0	-0.010867819
106	0xbd381fa0	-0.044952035
107	0xbc536550	-0.012902573
108	0x3c99cdc8	0.018774882
109	0x3d3c245e	0.04593312
110	0xbd2567d2	-0.040382214
111	0xbbaa4500	-0.0051962137
112	0xbd128540	-0.03577161
113	0x3d764c06	0.060131095
114	0x3d00cf8a	0.031447925
115	0x3d44485c	0.04792057
116	0x3cfb2220	0.03065592
117	0x3bfc6310	0.007702239
118	0x3ccbdb00	0.0248847
119	0xbd32bc46	-0.043636583
120	0x3cbe52a0	0.023232758
121	0x3baadc10	0.005214222
122	0xbcda83ac	-0.026674114
123	0xbd6dcba4	-0.058055535
124	0xbcfa580c	-0.030559562
125	0xbd33fe8c	-0.043943927
126	0x3d78f89c	0.060783967
127	0x3bc89b80	0.0061220527
128	0xbcd673f8	-0.026178345
129	0xbd2d9102	-0.04237462
130	0x3add7d40	0.0016898289
131	0x3d5c2ed8	0.05375561
132	0xbce35738	-0.02775155
133	0xbcf31db0	-0.029677242
134	0xbcc7ecfc	-0.024404995
135	0x3cf0bca0	0.029386818
136	0x3b649700	0.0034880042
137	0xbd240e26	-0.040052556
138	0xbcdf7afc	-0.027280323
139	0x3d790cca	0.060803212
140	0x3d116594	0.035497263
141	0x3d2e79cc	0.042596623
142	0xbca2f898	-0.01989393
143	0x3c4a2c28	0.012339629
144	0xbd16cde0	-0.03681743
145	0x3c95943c	0.01825916
146	0x3d42363a	0.047414996
147	0xbcd59c88	-0.026075616
148	0x3ca899e4	0.020581193
149	0x3d54a740	0.051917315
150	0xbc836568	-0.016039565
151	0x3d319286	0.043352626
152	0xbce9710c	-0.028496288
153	0x3d585740	0.052817583
154	0xbd4a1340	-0.049334764
155	0x3cfe6498	0.031053826
156	0xbd287dfa	-0.041135766
157	0xbd68917a	-0.056779362
158	0xbc93e5f4	-0.018053986
159	0xbcfddca8	-0.030989006
160	0xbd060b9e	-0.032725923
161	0xbd401504	-0.046895042
162	0x3d26c290	0.040712893
163	0x3d62db7e	0.055385105
164	0xbd6de514	-0.058079794
165	0xbbbaa380	-0.0056957603
166	0xbd05ec86	-0.03269627
167	0xbd5d2934	-0.053994372
168	0xbd724f62	-0.059157737
169	0xbd5cc3cc	-0.053897664
170	0xbd46a4e8	-0.04849711
171	0xbc4e2c28	-0.01258377
172	0x3d3fa390	0.046786845
173	0xbd6a6bba	-0.057231642
174	0x3c5e4048	0.0135651305
175	0xbd56178a	-0.052268542
176	0xbd646c82	-0.055767544
177	0x3d0852cc	0.033282086
178	0xbc648d90	-0.013949767
179	0xbc157920	-0.009123117
180	0xbd58578e	-0.052817874
181	0xbd5b79aa	-0.053582825
182	0x3c85efcc	0.016349696
183	0xbd0539bc	-0.032525763
184	0xbd3c239a	-0.04593239
185	0xbcc43918	-0.023953006
186	0x3d636cd4	0.05552371
187	0xbcdba820	-0.026813567
188	0x3ca7a534	0.020464517
189	0x3d6cca2c	0.057809994
190	0x3cacf13c	0.021111123
191	0xbd64618a	-0.055757083
192	0xbd572e1c	-0.052534208
193	0x3d7be156	0.061494194
194	0xbb844760	-0.004036829
195	0x3d2858d6	0.041100346
196	0xbcfa8960	-0.030583084
197	0x3c6f9b78	0.014624469
198	0xbcfb9fa0	-0.030715764
199	0x3d36b2e4	0.044604197
200	0x3afa1740	0.0019080415
201	0x3ccc577c	0.02494406
202	0x3d3b5a16	0.04574021
203	0x3c4fec58	0.012690626
204	0x3b007ea0	0.0019606724
205	0x3cda5c8c	0.026655458
206	0x3cfb1c1c	0.030653052
207	0x3d10d71e	0.0353614
208	0x3b0964c0	0.0020964593
209	0x3cfc6b60	0.03081292
210	0x3986ee00	0.00025735795
211	0x3cd9fd50	0.026610047
212	0x3d6d56d8	0.05794415
213	0xbc99b11c	-0.01876121
214	0xbd5ba40c	-0.053623244
215	0x3d079518	0.03310117
216	0x3cbab7e0	0.022792757
217	0x3c4bca60	0.012438387
218	0x3be45010	0.006967552
219	0x3d1cb0a6	0.038254403
220	0xbb37fc00	-0.0028073788
221	0xbc373c78	-0.0111838505
222	0xbc3369e0	-0.010950536
223	0x3d3be3b4	0.04587145
224	0x3ceb468c	0.028720163
225	0xbd3c7fbe	-0.046020262
226	0xbd7c2b3c	-0.06156467
227	0xbd5933b6	-0.05302783
228	0x3d4d66e4	0.050146952
229	0xbd1c7268	-0.038195044
230	0xbd798d90	-0.06092602
231	0x3c440b78	0.011965625
232	0x3c9f4198	0.019440457
233	0x3d1aabf6	0.03776165
234	0xbc7445d0	-0.014909223
235	0x3d6b2caa	0.05741564
236	0xbc08e808	-0.008356102
237	0x3cd8fb70	0.026487082
238	0x3b372b40	0.0027949363
239	0xbc16b7c0	-0.009199083
240	0x3baf8e00	0.005357504
241	0xbd4d35e2	-0.050100215
242	0x3c7aa350	0.015297726
243	0xbca8e3c8	-0.020616427
244	0xbd6967b8	-0.05698368
245	0xbb9a4b00	-0.0047086477
246	0xbd4f06d6	-0.05054363
247	0x3d20487e	0.039131634
248	0xbcd21d60	-0.025648773
249	0x3beff710	0.0073231533
250	0x3a63d880	0.0008691624
251	0xbcb6316c	-0.022240363
252	0x3cbbdcc0	0.02293241
253	0x3c6cc1a0	0.014450461
254	0x3a1a4c80	0.0005886033
255	0xbbf81490	-0.0075708106

2.bias f4 [256]
0	0x3d17f6e8	0.037100703
1	0x3c6822a8	0.014168419
2	0x3c1f6ab8	0.009730034
3	0x3cb7d0b8	0.022438392
4	0xbd3f378a	-0.046683826
5	0x3d60d6dc	0.054892406
6	0xbcc81fb8	-0.024429187
7	0xbcb2a780	-0.021808386
8	0x3ce78db0	0.028265804
9	0xbca3b778	-0.019984946
10	0xbc58cef0	-0.0132329315
11	0xbbae0890	-0.0053110793
12	0x3d688008	0.056762725
13	0xbd24d05e	-0.040237777
14	0xbb9a52b0	-0.004709564
15	0x3d503d4e	0.050839715
16	0x3d218018	0.0394288
17	0xbc47bf58	-0.012191616
18	0xbd769c42	-0.060207613
19	0x3d756266	0.059908293
20	0x3cbc96b4	0.02302108
21	0x3c84670c	0.016162418
22	0x3d1569d2	0.03647787
23	0xbd784776	-0.060615025
24	0x3d17af20	0.037032247
25	0x3d4bcdcc	0.04975681
26	0xbd526306	-0.051363967
27	0x3d18d5c8	0.037313253
28	0x3c675d00	0.014121294
29	0xbcd67540	-0.026178956
30	0xbd291f70	-0.041289747
31	0x3c753360	0.014965862
32	0xbd585ade	-0.052821033
33	0xbc68c8d8	-0.014208041
34	0x3c9d6a2c	0.019215666
35	0x3cb9cb2c	0.022679888
36	0xbcd960d4	-0.026535429
37	0x3c4ecfe0	0.012622803
38	0xbcfe2910	-0.03102544
39	0x3d12d670	0.035849035
40	0xbcb6bb1c	-0.022306018
41	0x3d0e7a0c	0.03478436
42	0xbd5c0032	-0.053711124
43	0xbd21f456	-0.039539658
44	0x3b6ee1e0	0.003645055
45	0x3d524dd4	0.051343754
46	0x3c338210	0.010956302
47	0x3bc30b60	0.0059522837
48	0xbcf17ee0	-0.029479444
49	0x3bdd6db0	0.0067574605
50	0xbd245a4e	-0.040125184
51	0x3d798558	0.060918182
52	0xbd6a5876	-0.05721327
53	0x3a377d00	0.00069995224
54	0x3c08d990	0.008352652
55	0xbd68ba0e	-0.05681806
56	0x3d33c020	0.043884397
57	0x3d6aa9f8	0.057291
58	0x3ab79600	0.0014006495
59	0xbcf7cb58	-0.030248329
60	0x3c91fd84	0.017821081
61	0x3ca1e990	0.019764692
62	0x3c408f70	0.011752948
63	0xbbe8e8a0	-0.007107809
64	0x3d35d36c	0.04439108
65	0xbc9a9e34	-0.018874265
66	0xbc1a18c0	-0.009405315
67	0xbd37270e	-0.04471498
68	0xbd5a317e	-0.053269856
69	0xbb151960	-0.002275072
70	0xbd74f02a	-0.05979935
71	0xbd023cf0	-0.031796396
72	0x3d677226	0.056505345
73	0xbd099d48	-0.03359726
74	0x3b77d240	0.0037814528
75	0x3cbf9714	0.02338747
76	0x3cc9b728	0.024623469
77	0x3d1d2b6c	0.03837149
78	0xbc355858	-0.011068426
79	0x3d74e192	0.059785433
80	0xbd517cca	-0.0511444
81	0x3d347e92	0.04406602
82	0xbc7c19a8	-0.015386976
83	0xbcd9dbdc	-0.026594095
84	0x3d593994	0.053033426
85	0xbd6364c6	-0.055516027
86	0xbc6461b8	-0.013939314
87	0xbd73e474	-0.05954404
88	0xbc7c1c68	-0.015387632
89	0xbd242f54	-0.040084198
90	0xba028d80	-0.00049801916
91	0xbca5bbc0	-0.020231128
92	0xbd31e48c	-0.04343085
93	0x3b533b40	0.003223136
94	0x3c51ab18	0.01279714
95	0x3ce44fbc	0.027870052
96	0x3ccffc5c	0.025388889
97	0xbc875cf8	-0.016523823
98	0x3d323d34	0.0435154
99	0xbcfc3cc4	-0.030790694
100	0xbd71b384	-0.05900909
101	0x3d3bfea6	0.04589715
102	0x3cce19b4	0.02515874
103	0xbcad7f1c	-0.021178775
104	0xbd4b1614	-0.049581602
105	0xbc2e7d60	-0.010650009
106	0xbc0ce438	-0.008599333
107	0xbc1a7da0	-0.009429365
108	0x3bedb770	0.0072545335
109	0x3d2d73f2	0.042346902
110	0xbcf2dc20	-0.02964598
111	0xbd43d804	-0.04781343
112	0x3cb0c614	0.021578826
113	0xbb91c2b0	-0.0044482574
114	0x3d084afe	0.033274643
115	0x3d44f4ce	0.048085026
116	0x3c3df230	0.0115933865
117	0xbd76f26c	-0.060289785
118	0x3d6d1a02	0.05788613
119	0xbd609b0e	-0.05483537
120	0x3cbeb500	0.023279667
121	0xbcf2508c	-0.029579423
122	0xbcc3ee58	-0.023917362
123	0x3d319c92	0.043362208
124	0x3c877488	0.016535059
125	0x3cdb52e4	0.026772924
126	0xbcc658b4	-0.024212219
127	0x3ceb0e0c	0.028693222
128	0x3c9894ec	0.018625699
129	0x3ce5782c	0.028011404
130	0xbd3f3aec	-0.04668705
131	0xbd2e38d6	-0.04253467
132	0xbd2c5f28	-0.042082936
133	0x3d30c80e	0.043159537
134	0x3c982fe4	0.018577524
135	0xbccefa80	-0.025265932
136	0xbcfaa6b8	-0.030597076
137	0x3abc5480	0.0014368445
138	0x3d3f8738	0.046759814
139	0x3c8f0a5c	0.017460994
140	0xbc2a5930	-0.0103972405
141	0xbcd99180	-0.026558638
142	0x3d617a0e	0.05504804
143	0xbd2714d0	-0.040791333
144	0x3d06c0b6	0.032898627
145	0x3cd9b254	0.026574291
146	0xbbfe4300	-0.007759452
147	0xbd593f6c	-0.053039
148	0xbd73cd4c	-0.05952196
149	0x3d687ef4	0.056761697
150	0x3d41a282	0.04727412
151	0x3d5f761a	0.05455599
152	0xbbec3890	-0.007208891
153	0xbd52b0e0	-0.051438212
154	0x3bb4f530	0.0055223927
155	0x3caea9a4	0.021321125
156	0x3d214682	0.039373882
157	0xbc883cc8	-0.016630545
158	0x3d105d98	0.035245508
159	0xbc0356d8	-0.008016311
160	0x3d0162fc	0.03158854
161	0xbd7a7550	-0.061147034
162	0xbc5d6798	-0.013513468
163	0xbd4f67fe	-0.050636284
164	0xbcf9ba08	-0.030484214
165	0x3cb90a1c	0.022587828
166	0x3c8c158c	0.017100118
167	0xbd18068e	-0.037115626
168	0x3c0f7838	0.00875669
169	0xbd0edb32	-0.03487701
170	0xbd4edd9a	-0.050504304
171	0x3c7aa7d0	0.015298799
172	0x3c809e0c	0.015700363
173	0x3bdbb390	0.006704755
174	0xbc6893d0	-0.0141953975
175	0xbd7d2bae	-0.061809234
176	0x3c0d4e08	0.008624561
177	0xbcadac3c	-0.021200292
178	0xbb9a09e0	-0.004700884
179	0x3d0642bc	0.032778487
180	0x3d354a62	0.04426039
181	0x3d3db69a	0.04631672
182	0x3d5e4f48	0.054274827
183	0xbcb72cfc	-0.022360317
184	0x3d232d84	0.03983833
185	0xbd302d00	-0.043011665
186	0x3c6e7a58	0.014555536
187	0x3ca4b2a4	0.020104714
188	0x3b9d68f0	0.0048037693
189	0xbbf511f0	-0.007478945
190	0x3ccc036c	0.024903975
191	0x3d4ab1e8	0.04948607
192	0x3b64f140	0.0034933835
193	0x3d527406	0.05138018
194	0xbd746bce	-0.059673123
195	0x3d0d4632	0.03449077
196	0x3c8c7eac	0.017150246
197	0xbc1019b8	-0.008795194
198	0x3d75eb60	0.060038924
199	0xbc4d13f0	-0.0125169605
200	0xbc251ad8	-0.010077201
201	0x3d226122	0.039643414
202	0xbcee08d8	-0.029056951
203	0x3b2e30a0	0.0026579276
204	0xbd52d326	-0.051470898
205	0xbbe247a0	-0.006905511
206	0x3c07e718	0.008294843
207	0xbd00bbd4	-0.031429127
208	0xbc99d62c	-0.018778883
209	0x3d3b5822	0.045738347
210	0x3d38a626	0.045080326
211	0xbd5f3df4	-0.054502442
212	0xb91d6600	-0.00015010685
213	0xbc4dced8	-0.012561522
214	0xbc8550ec	-0.016273938
215	0x3d69a58e	0.05704265
216	0x3d5bbb26	0.053645276
217	0x3d66c7c4	0.056342855
218	0x3d4c69b8	0.04990551
219	0x3d73a3f6	0.059482537
220	0xbd0a3082	-0.033737667
221	0x3cafae54	0.02144543
222	0xbce6a4d4	-0.028154768
223	0xbc4f9340	-0.0126693845
224	0xbcea9fe0	-0.028640687
225	0x3d60a35c	0.05484329
226	0x3ceb8c84	0.028753527
227	0x38ac1c00	8.2068145e-05
228	0x3c9b9408	0.018991485
229	0x3d4f61b6	0.050630294
230	0xbbc5c140	-0.006035
231	0xbd5dc242	-0.054140337
232	0x3b9adc50	0.0047259703
233	0x3c7392e0	0.014866561
234	0xbcfe1e38	-0.031020269
235	0x3b840800	0.004029274
236	0xbc0a6218	-0.008446239
237	0xbd228dea	-0.03968612
238	0xbd1d9268	-0.038469702
239	0xbc47a988	-0.0121864155
240	0x3cd930a8	0.026512459
241	0x3d74ba96	0.059748255
242	0xbae15740	-0.001719214
243	0xbd79d65c	-0.060995445
244	0xbd2212d0	-0.039568722
245	0x3d797108	0.06089881
246	0x3d64a160	0.05581796
247	0x3c09b0f0	0.008404002
248	0xbd42ee0e	-0.047590308
249	0xbd44f758	-0.048087448
250	0x3cb3ffcc	0.02197256
251	0xbcd9a0bc	-0.026565902
252	0x3d780cbc	0.06055902
253	0xbd28087e	-0.041023724
254	0x3c465898	0.012106083
255	0xbd7d8160	-0.06189096

4.weight f4 [35, 256]
0	0x3d573d3e	0.05254864
1	0x3b3f5480	0.0029194653
2	0x3d36f916	0.04467114
3	0xbd7d9532	-0.061909862
4	0xbcdaa54c	-0.026690148
5	0x3af9a4c0	0.0019046292
6	0x3cc41c44	0.02393926
7	0x3d394968	0.04523602
8	0xbd5b62ae	-0.053560905
9	0xbd22b450	-0.03972274
10	0xbd4b30bc	-0.049607024
11	0x3d5ac7fa	0.05341337
12	0xbd5b455e	-0.05353295
13	0x3d69d444	0.057087198
14	0x3d2db1fe	0.042406075
15	0x3c1150b0	0.008869335
16	0xbc9e60d8	-0.019333288
17	0x3c3dff70	0.011596546
18	0x3ce6a2a0	0.028153718
19	0xbb8ecef0	-0.004358165
20	0xbc83b09c	-0.016075425
21	0x3bad6040	0.005291015
22	0xbc2e1be8	-0.010626771
23	0xbcf9ff0c	-0.030517124
24	0xbd027ab0	-0.031855285
25	0xbd52f1ca	-0.05150012
26	0xbd6981fe	-0.057008736
27	0x3c9f6294	0.019456185
28	0xbd0c56a0	-0.0342623
29	0x3d45b306	0.048266433
30	0x3cd85e64	0.026412196
31	0xbd0b208c	-0.033966586
32	0xbd7a5cec	-0.061123773
33	0xbd589182	-0.052873142
34	0xbcf76cec	-0.030203305
35	0xbce7fb88	-0.028318182
36	0x3d7bb0e4	0.061447993
37	0x3d516960	0.051125884
38	0xbd4a7c58	-0.04943499
39	0xbd42884e	-0.04749327
40	0xbd509e10	-0.05093199
41	0x3c626000	0.0138168335
42	0xbd26915a	-0.04066596
43	0xbcbfae90	-0.023398668
44	0xbc5027c0	-0.01270479
45	0x3d78d892	0.060753413
46	0x3c6c2e68	0.014415361
47	0xbd285c08	-0.041103393
48	0xbd257cfc	-0.040402398
49	0xbd3bac12	-0.045818396
50	0x3d3fc7da	0.046821453
51	0xbcf7edfc	-0.030264847
52	0xbcd9bb78	-0.02657865
53	0x3c3b9958	0.011450134
54	0x3d19410e	0.037415557
55	0xbbfd76d0	-0.007735111
56	0xbcbee788	-0.023303762
57	0x3d287fbc	0.041137442
58	0xbb683e00	-0.0035437346
59	0xbd77835e	-0.060428016
60	0x3cdf1734	0.027232744
61	0xbcd3e174	-0.02586434
62	0x3c414758	0.011796795
63	0x3cd96a48	0.026539937
64	0xbd4bc038	-0.04974386
65	0x3d41edb0	0.047345817
66	0xbcaccf40	-0.021094918
67	0xbd61701e	-0.055038564
68	0x3c9f262c	0.019427381
69	0xbd04e0a6	-0.032440804
70	0xbd33aa70	-0.043863714
71	0x3d536218	0.05160722
72	0x3c83572c	0.016032778
73	0xbc9be32c	-0.019029222
74	0x3d512b40	0.051066637
75	0xbd430c9a	-0.04761944
76	0xbcd692ec	-0.026193105
77	0xbc925378	-0.017862067
78	0xbca96f54	-0.020682968
79	0xbd337866	-0.043815993
80	0x3a1e7400	0.0006044507
81	0xbc9b49dc	-0.018956117
82	0xbd3443e8	-0.044010073
83	0xbd310580	-0.043218136
84	0x3cc3a9e4	0.023884721
85	0x3b245620	0.0025075749
86	0x3ca1ed60	0.01976651
87	0x3d4a5a78	0.049402684
88	0xbbaab1c0	-0.0052091777
89	0xbc87cf70	-0.016578406
90	0x3a673480	0.0008819774
91	0x3ba96690	0.005169697
92	0xbd717fc8	-0.058959752
93	0x3d7bd58a	0.061482944
94	0x3d2025a2	0.03909839
95	0xba0d4e00	-0.0005390346
96	0x3c8fcff0	0.017555207
97	0xbbcd9650	-0.006274022
98	0xbd33a468	-0.043857962
99	0xbd167992	-0.036737032
100	0xbd4ea462	-0.050449736
101	0xbd2405f0	-0.040044725
102	0x3c075168	0.008259155
103	0x3d4eb8a4	0.050469056
104	0x3d5b7708	0.053580314
105	0x3c71ad78	0.014750831
106	0x3caefdcc	0.021361254
107	0x378e6000	1.6972423e-05
108	0xbbfda960	-0.0077411383
109	0x3d56214c	0.052277848
110	0xbbf490e0	-0.0074635595
111	0xbd7d1188	-0.061784297
112	0x3d65b7ba	0.05608342
113	0x3d1ef12a	0.03880421
114	0x3b2939c0	0.0025821775
115	0xbca12c10	-0.019674331
116	0x3d73d210	0.059526503
117	0xbc9d23f8	-0.01918219
118	0x3d43348e	0.047657542
119	0xbcb88478	-0.022524104
120	0x3d12591e	0.03572952
121	0xbd5aa480	-0.053379536
122	0xbceeb700	-0.029139996
123	0x3c238d80	0.009982467
124	0xbd4e58bc	-0.050377592
125	0x3d762c28	0.060100704
126	0xbba38810	-0.004990585
127	0x3c509ed0	0.012733176
128	0x3d0f0fcc	0.034927174
129	0xbc7a18e8	-0.015264727
130	0x3cbad76c	0.0228078
131	0xbce5c7c8	-0.028049365
132	0x3bbc1f80	0.00574106
133	0x3bf2eac0	0.0074132383
134	0x3b1fda00	0.0024391413
135	0x3c9224f4	0.017839886
136	0x3d1969e2	0.037454493
137	0x3d2e6e04	0.042585388
138	0xbd7d7090	-0.061874926
139	0xbcb49764	-0.022044845
140	0x3d7700ee	0.06030362
141	0xbd0bed44	-0.03416182
142	0xbd32680a	-0.04355625
143	0xbd7eba90	-0.06218964
144	0x3ca86c80	0.02055955
145	0xbd1ff63e	-0.039053194
146	0xbd76a23e	-0.06021332
147	0x3d369594	0.044576243
148	0x3d78def8	0.060759515
149	0xbd7dc12c	-0.0619518
150	0x3d035f20	0.03207314
151	0xbd40d4c4	-0.04707791
152	0xbd76a8e0	-0.060219646
153	0x3c4ee9f8	0.012629025
154	0x3cf9dec0	0.030501723
155	0x3d45e58a	0.04831461
156	0xbd753b28	-0.05987087
157	0xbd20cb98	-0.039256662
158	0xbc80e3c8	-0.015733615
159	0x3b9ea670	0.0048416182
160	0xbd10537e	-0.035235874
161	0xbd35f25a	-0.044420578
162	0xbcc208c8	-0.023685828
163	0x3d124d5e	0.035718314
164	0xbc8ecb24	-0.01743085
165	0x3d5816b4	0.052756026
166	0xbd780aee	-0.0605573
167	0xb9b3e000	-0.00034308434
168	0x3bb6ebc0	0.005582303
169	0xbccacf60	-0.024757087
170	0xbcf89cb8	-0.030348167
171	0x3ba8b810	0.005148895
172	0x3d72d6ba	0.05928681
173	0x3d46a5cc	0.04849796
174	0x3d381a68	0.044947058
175	0x3d7639f8	0.060113877
176	0x3b3816a0	0.0028089657
177	0x3c92b7a8	0.01790984
178	0x3c63c0c8	0.013900943
179	0x3ce9f754	0.028560318
180	0x3c06a6c8	0.008218475
181	0x3d4bc9e8	0.0497531
182	0x3d6c04ba	0.057621695
183	0xbcaf2650	-0.021380574
184	0x3d2eea4c	0.04270391
185	0xbd6c7d38	-0.057736605
186	0x3d399740	0.04531026
187	0x3ce0d80c	0.02744677
188	0x3d200c5e	0.039074294
189	0x39ed5100	0.00045264512
190	0x3d53a432	0.05167026
191	0x3ceb5fb4	0.028732158
192	0x3d096b0a	0.033549346
193	0x3cbc7c68	0.02300854
194	0xbd3a6250	-0.045503914
195	0xbd74dc0a	-0.059780158
196	0xbc906da0	-0.017630398
197	0xbd25fa42	-0.040521868
198	0x3cbd0aa8	0.02307637
199	0x3cefc9d0	0.029271036
200	0x3d3483ce	0.04407101
201	0xbcbb0e44	-0.02283395
202	0x3ae17440	0.0017200783
203	0xbd1579d6	-0.036493145
204	0x3cb72778	0.022357687
205	0xbce74af8	-0.02823399
206	0xbd385056	-0.04499849
207	0x3ba8b8f0	0.0051489994
208	0xbd666cca	-0.056256093
209	0xbc114a38	-0.008867793
210	0xbd0fb3f0	-0.03508371
211	0xbc23e958	-0.010004364
212	0xbc1d55f0	-0.009603009
213	0x3d1d2922	0.038369305
214	0xbc8006fc	-0.01562833
215	0xbc721498	-0.014775418
216	0xbd7ce6a2	-0.061743386
217	0x3caaca68	0.020848468
218	0xbc7909a0	-0.015200049
219	0x3c446530	0.011987016
220	0xbc0031a8	-0.007824339
221	0x3d186fc2	0.037215956
222	0xbd7fed86	-0.06248238
223	0x3ce03578	0.027369246
224	0xbcfd7450	-0.030939251
225	0x3b53aa80	0.003229767
226	0x3d3da294	0.046297625
227	0x3d496dc8	0.04917696
228	0xbc3599b8	-0.011084013
229	0x3b106560	0.002203308
230	0xbca31ee8	-0.019912198
231	0x3cbe7fdc	0.023254327
232	0x3d57e230	0.052705944
233	0x3c9ae850	0.018909603
234	0xbd203458	-0.03911242
235	0xbb3469e0	-0.0027528927
236	0xbce899e0	-0.028393686
237	0xbd13b688	-0.036062747
238	0xbcfb283c	-0.030658834
239	0xbd4883a4	-0.048953667
240	0x3d0a83cc	0.033817098
241	0x3c064108	0.008194216
242	0x3d050dfe	0.032484047
243	0xbd4f728a	-0.050646342
244	0xbbeb4c20	-0.0071807057
245	0x3ca340fc	0.019928448
246	0xbd415174	-0.04719682
247	0x3d664cd8	0.056225628
248	0x3d202188	0.039094478
249	0xba8814c0	-0.001038216
250	0xbd5efe84	-0.054441944
251	0xbce6c37c	-0.028169386
252	0xbcdd7e8c	-0.027037881
253	0xbce949e8	-0.028477624
254	0xbc704328	-0.014664449
255	0xbd4291b8	-0.04750225

4.bias f4 [35]
0	0x3d7520f2	0.059845872
1	0xbc8b9804	-0.01704026
2	0x3d7f1484	0.062275425
3	0x3d76e398	0.060275644
4	0xbd04ffa4	-0.03247036
5	0x3d68b98a	0.05681757
6	0x3d762b4a	0.060099877
7	0xbba31bf0	-0.0049776956
8	0xbd7c559a	-0.061605074
9	0x3d62d3de	0.055377834
10	0xbd5b7b44	-0.053584352
11	0xbbb522f0	-0.0055278465
12	0x3d459544	0.048238054
13	0x3b1c6060	0.0023861155
14	0xbc9b284c	-0.018940113
15	0xbd0319c2	-0.032006986
16	0x3c8714e0	0.016489446
17	0xbc12bf68	-0.008956768
18	0x3d558ddc	0.05213724
19	0x3cc7539c	0.02433186
20	0xbd778198	-0.060426325
21	0x3d170cb8	0.036877364
22	0x3ca24744	0.019809373
23	0xbafb9c80	-0.0019196421
24	0xbca6c4b8	-0.020357475
25	0xbc481010	-0.012210861
26	0x3cbf3c44	0.023344167
27	0xbc846984	-0.016163595
28	0xbc7458d8	-0.01491376
29	0xbb801810	-0.0039091185
30	0xbd50fd92	-0.051023073
31	0xbd702b16	-0.05863484
32	0xba4c8880	-0.00078023225
33	0x3cef0a90	0.029179841
34	0x3cc060f0	0.023483723
