hyperparam/tomTest_20241129_162153/snn_model_tomTest.pth (torch, 323132 bytes, 6 tensors)

0.weight f4 [256, 16]
00000000: 0884 cfbd 42fd 323e 00a5 473d 7097 7c3d
00000010: 1c1c 05be 4245 7b3e 7c59 763e 4080 803b
00000020: 986d 02be 4892 93bd 64be c63d 6081 723c
00000030: 6012 c53c 043f fdbd 2a2e 153e cc97 65be
00000040: 60b9 c8bc 743b 023e d09d 9e3d 106f 7cbd
00000050: 708e ef3d 7c82 ecbd c0d2 983b e073 223d
00000060: 94bf 433e a0c0 29bd 5276 15be e8d3 4f3e
00000070: b6a7 273e 264d 053e 704a 5e3e 5054 f5bc
00000080: 62ce 2fbe 1431 b23d da23 5d3e 029c 5dbe
00000090: dcdb 00be 10a0 de3c 1864 33be 749a cdbd
000000a0: b855 50bd 0eee 203e 88cc 603e e46a 473e
000000b0: 348d 323e 60a7 07bd a6b5 36be 50b3 e3bc
000000c0: 2c1c 003e 44f0 753e 36db 53be f00a c5bd
000000d0: de1c 65be d08f 663d a668 09be c075 c3bd
000000e0: 78ef b73d 00ca d33c 0ec7 03be a023 293c
000000f0: 40c0 e3bb 507f 78be a4a9 493e 20a0 3c3e
00000100: 32ea 42be b02b 613e 24bb 883d 3081 c2bc
00000110: 2e0a 633e 5aa6 7bbe 78dc 563d c0a2 86bd
00000120: 1247 65be 9e76 27be b409 cb3d a062 36bd
00000130: fa3e 6f3e 28c7 4e3e e0b1 713d 60f7 643c
00000140: a0e4 72be 10d9 40bd c8e2 5c3e 388f 423d
00000150: a474 a73d 18da 5c3d b02e b53d 28e7 f7bd
00000160: 2e3b 71be 8257 71be a0b9 40bc 1add 363e
00000170: 307c 9f3d 70cf 213e ae0d 443e 2c55 bcbd
00000180: 8837 b5bd 20c3 2abc ec2b 863d 3ac2 37be
00000190: a056 b3bc 0aed 01be b0a9 493e 8cb5 79be
000001a0: 8080 8dbb 3813 85bd 646a fdbd 90c2 df3d
000001b0: 9c21 f13d fc5e 2ebe 88dc c5bd 3ebe 1b3e
000001c0: 4acd 04be 80ee 3e3e d4aa 373e 40f3 8e3b
000001d0: 0871 353d 30de b8bd 8658 7fbe 04a0 423e
000001e0: f062 2d3e 0492 1a3e 50ed adbc 42c2 7a3e
000001f0: a08f ea3c c4cd 243e 7c26 9a3d b0ab 793d
00000200: 44ab 2e3e 4076 c4bd 881a 22bd b8e7 6dbd
00000210: 2e5c 4dbe 2c49 eb3d 60d5 0abe e818 583e
00000220: b6f4 5c3e 682a 21be 542a 7b3e 702a a23c
00000230: fce2 d9bd 9095 92bd 6af9 073e e864 75be
00000240: f802 ee3d 6826 323e 6212 62be f45c 403e
00000250: 90e1 b53d c8a6 a8bd 6450 52be c4f3 4d3e
00000260: 522a 72be f263 4f3e d80c 2a3e 38e6 47be
00000270: 6621 19be ac9d b8bd 1067 8a3d f44d 3dbe
00000280: 0ca5 b7bd b4a3 703e 8014 ee3b b81e 413e
00000290: 885f cd3d 5890 4d3d 7440 063e c83e eb3d
000002a0: 609c 683d 607d 6f3e 8c68 6b3e 14af f83d
000002b0: 00be 053d 68e2 933d 2017 61bd 0cc7 373e
000002c0: 34c9 883d 446b 9c3d 54ad 73be fcd5 a23d
000002d0: 78d5 7c3d 7220 143e 04df 6cbe 24c3 6e3e
000002e0: 9cc1 1abe 00e5 37bb b6cd 193e 18d5 0b3e
000002f0: 2aa9 4fbe 4e4c 223e 68ab 30bd 04e3 9ebd
00000300: 0c71 f13d bc70 33be 36f6 1c3e 28a4 37bd
00000310: e4cc 5a3e e823 71be 38f2 60bd 8222 2fbe
00000320: 781a 4cbd 509e cdbc a080 98bc 60e7 be3c
00000330: 90c8 87bc e07d 883d 0065 5abc cca5 1d3e
00000340: 42bb 553e f45f b43d 985a 6f3d 2ac9 23be
00000350: 94d0 46be ded4 78be 9034 03be e8a6 15be
00000360: 30bc e3bc fc18 883d 6245 013e f443 f33d
00000370: 4ad6 26be 00ef 94bb 2039 acbd 0278 4d3e
00000380: e42e bfbd f03e 9b3c e0b7 60bd 38bf 123e
00000390: e0e1 cdbc 78e8 1abe a2ae 7abe bc8c f2bd
000003a0: 483e d0bd b8c7 49be 5063 9b3c 5496 20be
000003b0: 7018 cb3c e022 46be 6c17 80bd 3ee0 753e
000003c0: 5cbc f23d 60d8 13bc 3476 3abe 94ef 06be
000003d0: 0805 823d 409c 6ebc 2078 3bbc 2243 26be
000003e0: 569a 0c3e 7c2e fb3d 5495 323e a05e 3f3c
000003f0: 4067 2b3c 342e b23d 6054 d7bd 20b9 b63d
-0.10132605 0.17479423 0.04874134 0.06166786 -0.12999004 0.24538139 0.24057573 0.0039215386
-0.12737119 -0.07205635 0.09704283 0.014801353 0.024056613 -0.12365535 0.14568391 -0.22421187
-0.024502456 0.12717992 0.07744944 -0.061629355 0.1169709 -0.115483254 0.004663795 0.03966129
0.1911605 -0.041443467 -0.14595917 0.2029568 0.1637257 0.13017711 0.21708083 -0.02994743
-0.17168573 0.08700767 0.21595708 -0.21641544 -0.1258387 0.027175933 -0.17518651 -0.10039225
-0.050862998 0.1571581 0.21953022 0.1947437 0.17436677 -0.033118606 -0.17842731 -0.027795464
0.12510747 0.24017435 -0.20689091 -0.09621227 -0.22374293 0.056289494 -0.13418826 -0.095439434
0.08981222 0.025853157 -0.12868902 0.010323435 -0.006950408 -0.24267316 0.19693619 0.18420458
-0.19034651 0.21989322 0.06676319 -0.023743242 0.22171852 -0.24575177 0.05245635 -0.06574011
-0.22390392 -0.16353843 0.0991396 -0.04452765 0.23363867 0.2019316 0.059007525 0.013974994
-0.23720026 -0.047082007 0.21570885 0.047499865 0.08176544 0.053918928 0.088467956 -0.121046364
-0.23557732 -0.23568538 -0.011763006 0.17857781 0.07787359 0.15801787 0.19145843 -0.09195933
-0.08848482 -0.010422498 0.06551346 -0.17945185 -0.021891892 -0.1268808 0.19693637 -0.24385661
-0.004318297 -0.06497806 -0.12373808 0.10925782 0.117739886 -0.17028421 -0.096612036 0.1520929
-0.12968937 0.18645668 0.1793626 0.0043624938 0.044297248 -0.09026754 -0.24936113 0.19006354
0.16932273 0.15094763 -0.021231323 0.24488166 0.028632939 0.16094118 0.075268716 0.06095475
0.1705752 -0.09592867 -0.039576083 -0.058082312 -0.20054695 0.11488566 -0.13557959 0.21103251
0.21577725 -0.15738833 0.24527866 0.019795626 -0.10638997 -0.07157433 0.13278738 -0.23964274
0.1162166 0.17397463 -0.22077325 0.18785459 0.08880913 -0.08234936 -0.20538479 0.2011252
-0.23648956 0.2025297 0.16606462 -0.19521415 -0.14954147 -0.090144485 0.06757939 -0.18486768
-0.08967027 0.23499948 0.0072656274 0.18859375 0.10027987 0.050186485 0.13110524 0.11486584
0.056789756 0.2338767 0.229891 0.121427685 0.0326519 0.07220918 -0.054953694 0.17947024
0.066790015 0.07637647 -0.23796588 0.079509705 0.061727017 0.14465502 -0.23131949 0.23316628
-0.15112919 -0.0028060079 0.15019879 0.13655508 -0.20279375 0.1584942 -0.043132216 -0.077581435
0.1178914 -0.17523474 0.15328297 -0.044834286 0.21367222 -0.23548853 -0.054918498 -0.17103007
-0.04982993 -0.025099903 -0.01861602 0.023303688 -0.016575128 0.06664634 -0.013329744 0.15395278
0.20872214 0.08807364 0.058436006 -0.15994707 -0.19415504 -0.24299952 -0.1281302 -0.14614451
-0.027799696 0.066453904 0.12624124 0.118781954 -0.16292682 -0.0045450926 -0.08409333 0.2006531
-0.093351156 0.01895091 -0.054862857 0.14330757 -0.02513212 -0.15127742 -0.2448068 -0.11843249
-0.10168129 -0.19705093 0.018968254 -0.15682346 0.024791926 -0.19349241 -0.06254467 0.24011323
0.11852333 -0.009023756 -0.18209153 -0.1317733 0.06348616 -0.01456362 -0.011442214 -0.16236547
0.1373075 0.122647256 0.17439777 0.011680275 0.010461628 0.08700219 -0.1051414 0.089220285

0.bias f4 [256]
00000000: 2460 afbd 50d3 443e 4063 153e f029 fb3d
00000010: 5465 843d 545f e4bd b4b0 bcbd 280c 8d3d
00000020: d05f 17bd 2042 b23d 208f b93c 78a6 e83d
00000030: f0b4 313d 529a 213e 7075 76bd 02cf 373e
00000040: c85e 95bd 36c5 0e3e e86e 78be 324c 0abe
00000050: 84b4 703e 205f a3bd aa34 3abe 0023 efbc
00000060: 1883 423e 0661 603e 02d5 3abe 98b4 77bd
00000070: b438 1fbe bea0 72be 7cc7 c93d 5464 a6bd
00000080: d0c4 8abc 649c 37be d6cb 593e 4cf7 013e
00000090: d471 973d 667c 5bbe ac40 47be 002e 753a
000000a0: 4a0f 74be 4092 493c 10b4 73bd 6805 4c3d
000000b0: 5a56 383e 2c82 6fbe 548d 29be 249f be3d
000000c0: 6a5f 37be 8ef7 02be 326e 5cbe 4849 2dbd
000000d0: c09f 62bc e8a1 773d c0a0 dabc 7880 1d3e
000000e0: 2071 3fbc 0064 63be 00f5 abba 1eb3 49be
000000f0: 0050 c43d 52c6 043e b088 b3bc 3cbb 35be
00000100: 84e0 313e 307e 20bd 308d 29bd 7ac5 0d3e
00000110: 5e93 223e 78cd 843d 40da b8bd 8081 b8bd
00000120: 08dc 18bd fc76 18be 9a42 713e 3053 7d3d
00000130: e857 493e 3865 083e 62c5 643e a6df 103e
00000140: ac14 ed3d 58d1 48bd e8f5 39bd fce6 5c3e
00000150: 68a3 3e3d d4b5 afbd b2f1 333e a01d 173e
00000160: 60fb d53c c05e e23d 70ea a6bd e245 1ebe
00000170: 009c d73a 9020 6fbe d2f6 3dbe a6e5 173e
00000180: 76ad 78be 0c9a adbd 8879 0c3d a46a f43d
00000190: fc75 ca3d 4071 863d 4485 d4bd d004 7fbe
000001a0: f24e 7d3e 4a0c 50be 2663 6fbe 8c18 8c3d
000001b0: bcb5 eabd 80c6 78bd 3ea6 2fbe aebc 673e
000001c0: 5c16 e33d 0058 f83c 900f 1cbd 1c7a a2bd
000001d0: a0f1 fcbd 6018 1b3d 3a59 5fbe 0033 e53c
000001e0: 2a39 75be f8b9 5d3d e0ee 56bd dc51 d7bd
000001f0: 12fc 463e 008b be3b 56a0 2d3e a4af c53d
00000200: 46c4 693e d896 b1bd 2c6a b4bd 7a1a 373e
00000210: c0bd 243c 2862 683e a02e 0c3c 5c78 78be
00000220: 5096 fd3c e8c6 48be c40d 0abe fa5d 523e
00000230: 34e0 cb3d 3894 dcbd 6241 263e d4a7 4d3e
00000240: 6851 473d f43c 6ebe 22ce 713e 147f 5bbe
00000250: e257 65be 780c a83d 2042 e33d cc94 43be
00000260: c014 713e 30cc e1bc ba8e 55be 205a 4cbd
00000270: e8e0 38bd 907f 0dbd dc6d c7bd 3009 9e3d
00000280: 364c 2c3e 881c 77bd 2ae7 00be 9cf4 673e
00000290: 9640 703e 0286 5dbe f41c 1fbe baf6 5abe
000002a0: 702b 35be 4055 88bd 242d f1bd bec9 42be
000002b0: 7e40 653e 98b7 e9bd dc1c f4bd 6a3f 393e
000002c0: 9479 8cbd 40b4 5ebe e03b 323d 7e0c 7e3e
000002d0: a690 34be f85f 38be fe41 2cbe 1ce5 d9bd
000002e0: 1ca2 ecbd 60aa 4abc 1839 d3bd 381d 5e3e
000002f0: 9466 163e 34e5 9dbd f633 53be 8803 67be
00000300: 9c8c 323e 082b 2b3d 5802 b4bd 32b9 05be
00000310: 3041 cd3c 9497 e63d fcbc 11be 1456 e6bd
00000320: 60a4 6c3d 4e88 403e 26c5 05be 3899 afbd
00000330: 1cbf 9d3d eac5 72be 304d 34be b883 ce3d
00000340: 0425 6ebe ec41 273e 64dd 9dbd 2440 febd
00000350: d88a ba3d 4227 5dbe a42f 8fbd 1400 9abd
00000360: 244d b0bd ac56 453e 288a f2bd 54b2 273e
00000370: c0e8 10bc ca90 0bbe 7062 a63c ccd2 573e
00000380: 0875 433e a037 3c3c 440c febd 24e9 663e
00000390: 5836 debd 889e f6bd c0b4 4dbd acdc c2bd
000003a0: 20f1 5abd 10b0 3dbe 6039 37bc f04f 1d3e
000003b0: e433 103e 1005 88bc a855 513d 8001 15bb
000003c0: 523f 2c3e 7c73 5dbe 042e 03be 5453 503e
000003d0: 2ae8 67be 48c6 6bbd 1406 9d3d 8c0a 613e
000003e0: 6039 31bc 8855 2d3d 1a44 37be b0f3 99bc
000003f0: 2457 5dbe d2ea 613e 0409 00be 96ca 2d3e
-0.08563259 0.19221234 0.14588642 0.12263858 0.06464639 -0.11150995 -0.09213391 0.06887084
-0.03695661 0.087040186 0.022651255 0.113598764 0.043385446 0.15781525 -0.06017059 0.17950061
-0.07293469 0.13942418 -0.24261057 -0.13505629 0.23506361 -0.07977128 -0.18184152 -0.029191494
0.18995321 0.21912012 -0.18245319 -0.060474962 -0.15548974 -0.23694131 0.09852502 -0.08124605
-0.01693955 -0.17930752 0.21269163 0.12691993 0.07394758 -0.21434173 -0.19458264 0.0009352863
-0.23833957 0.012302935 -0.059497893 0.049809843 0.1800169 -0.233895 -0.16557819 0.093076974
-0.17907491 -0.12789747 -0.21526411 -0.042306215 -0.013832033 0.06045714 -0.02668798 0.15381038
-0.011684686 -0.22206116 -0.001311928 -0.19697234 0.09585571 0.12966278 -0.021915764 -0.17747205
0.17370802 -0.03918284 -0.041394413 0.13844863 0.15876529 0.064845026 -0.09026003 -0.09009075
-0.037319213 -0.14889139 0.23560563 0.061846912 0.1966244 0.13319862 0.2234092 0.14147815
0.115762085 -0.04902777 -0.04540053 0.21572489 0.046542555 -0.08579603 0.17572668 0.14757395
0.026120842 0.110532284 -0.08150184 -0.15456346 0.001644969 -0.23352265 -0.18551186 0.14833698
-0.2428492 -0.08476648 0.03429559 0.119344026 0.09885785 0.065645695 -0.10376981 -0.2490418
0.24737146 -0.20317188 -0.23377666 0.068406194 -0.11460444 -0.06073618 -0.1715326 0.2263057
0.11088249 0.0303154 -0.03810078 -0.07933447 -0.12350774 0.037865043 -0.21811381 0.02797842
-0.23947588 0.05413243 -0.052473903 -0.1051366 0.19432095 0.00581491 0.16955695 0.096526414
0.22828779 -0.08671349 -0.08809313 0.17881194 0.010055006 0.22693694 0.008556038 -0.24264663
0.030955464 -0.19607127 -0.13481814 0.20543662 0.09954873 -0.10770458 0.16235879 0.20083553
0.04866162 -0.2326544 0.2361379 -0.21435195 -0.22396806 0.08205503 0.11096597 -0.1909973
0.23543072 -0.027563184 -0.20855227 -0.049890637 -0.045136362 -0.03454548 -0.09737751 0.07716596
0.16825947 -0.060329944 -0.12588182 0.22651905 0.23462138 -0.21633151 -0.15538388 -0.21383181
-0.17692351 -0.06656885 -0.11776188 -0.19022271 0.22387883 -0.11411971 -0.11919567 0.18090597
-0.06859127 -0.21748447 0.043514132 0.24809453 -0.17633304 -0.18005359 -0.16822049 -0.10639402
-0.115543574 -0.012369722 -0.10313624 0.21690834 0.14687568 -0.07709733 -0.2062529 -0.22559941
0.1743645 0.041789085 -0.087895095 -0.13058928 0.025055498 0.1125938 -0.14232248 -0.11246887
0.057773948 0.18801996 -0.13063487 -0.08574146 0.07702467 -0.2370831 -0.1760757 0.10083717
-0.23256308 0.16333741 -0.077082425 -0.124145776 0.091085136 -0.21597007 -0.069915086 -0.07519546
-0.086084634 0.19271344 -0.118427575 0.1637662 -0.008844554 -0.13629451 0.02031061 0.21076506
0.19087613 0.011487871 -0.12404683 0.22549874 -0.10850209 -0.12041956 -0.050221205 -0.09514746
-0.05345261 -0.18524194 -0.011183113 0.15362525 0.14082295 -0.016603976 0.05110708 -0.002273649
0.1682103 -0.21626085 -0.12810522 0.20344287 -0.22647157 -0.057562143 0.07667175 0.2197668
-0.010816902 0.042317897 -0.17897072 -0.018792957 -0.21615273 0.22062233 -0.12503439 0.16971812

2.weight f4 [256, 256]
00000000: e4cc b7bc e040 62bd 045f 6b3d 12ae 1d3d
00000010: e426 1e3d a6c9 6fbd 3c47 59bd c04b 3cbc
00000020: c4b7 f23c 36ba 26bd 3836 be3c 7476 bfbc
00000030: 6880 a43c 1ce2 18bd 7813 3c3c 78cc 69bc
00000040: d8f4 53bd 2ef1 4ebd c0fc b2ba c020 423c
00000050: b8fc a13c ccd3 5dbd 207b c0bc 9c86 fdbc
00000060: 32d8 35bd d088 013c f217 3a3d b05f a93b
00000070: 64c1 ddbc c88e debc 90c3 e7bc 9462 f83c
00000080: bc47 4ebd f0e5 553d 12bc 6b3d eeb3 6c3d
00000090: 808f db3b c07c a03b 6032 d9bc 02e6 393d
000000a0: a0dc c0bb 48e9 0f3d 74a0 92bc 0a6f 5cbd
000000b0: aee6 45bd d4b5 e83c 646c df3c d00a ec3c
000000c0: e80d a83c e0ea 51bb 701e de3c cccc 80bc
000000d0: dec1 07bd 1415 f8bc 8027 813b 043f 01bd
000000e0: f66c 37bd f679 6e3d 9429 4bbd 406e ae3b
000000f0: 2cd9 fb3c f8aa d6bc 20e7 ae3b 84f0 abbc
00000100: 1a79 66bd 6ccf d03c 68c4 24bc 8846 4abd
00000110: 9eed 36bd e40e aa3c 22e0 6abd b459 f73c
00000120: b043 9a3c b0d2 993b c254 4f3d f455 473d
00000130: 887f 79bd 82d5 223d 0815 1bbc 54d5 e1bc
00000140: dc18 4fbd f4c3 3a3d e02d f1bc 40a1 72bc
00000150: f669 5ebd 3886 98bc 7ce7 e9bc ba3e 0b3d
00000160: 664c 243d e2a0 76bd 343c 67bd 7025 dfbc
00000170: 48dd 9bbc a694 0bbd b0cc 363d 24b9 263d
00000180: 1e42 3d3d a82b d3bc 68d1 0ebc 44fd 6cbd
00000190: aa2e 503d 48b7 0f3d 68ad 64bd 8c32 77bd
000001a0: 5a67 283d 64c1 f2bc 00f9 ef3b e632 6bbd
000001b0: 387a 46bc 7c68 353d 56ec 1fbd d00b b5bb
000001c0: 40ef cebb d860 7e3d 449e 68bd 7c4b 9c3c
000001d0: b864 7a3d e04e 46bc 70e1 f0bc 6635 293d
000001e0: f64a 043d 66e9 7e3d 24d1 e4bc 0c0f 71bd
000001f0: 4071 7abb 2034 c6bb 705d e63b 488b 43bc
00000200: b60f 5abd 2aa3 30bd 02bf 613d a0f6 ef3b
00000210: 4cb7 56bd 4426 28bd 14e5 ef3c b005 033d
00000220: 4a2f 5c3d 8c51 dbbc 1ea6 1dbd e0c3 d03b
00000230: 80c0 e7ba b4b8 83bc 1832 31bc 4028 f93c
00000240: 4005 75bb 6813 83bc 0048 103c 26a9 313d
00000250: e8a3 f1bc 2e9b 333d 70de e9bc e290 35bd
00000260: e689 133d 42bf 1e3d 4859 683d bc13 653d
00000270: 1c30 593d 280e 58bc 063f 753d 083f 25bd
00000280: e05b 1f3b 80b5 43ba 16ec 2cbd f2f6 213d
00000290: cc05 0dbd 0042 893a 9a63 543d a2d2 7fbd
000002a0: 10c6 8d3c 64bf 403d 409c 9d3a 4004 ccbb
000002b0: 007d 22bd 347b 133d 2069 0cbb 18ca cebc
000002c0: 8243 593d 8224 69bd cc01 b1bc c414 e1bc
000002d0: 849d 81bc d00a ca3c 96d2 443d 088c c73c
000002e0: 3afd 60bd 18e9 cebc 408b 053b 7c17 2bbd
000002f0: 686b 2b3c 6c2c 9b3c 266d 05bd 2435 a03c
00000300: b0dc 993b b4be 7ebd d0f9 93bc 3e1f 313d
00000310: c200 7ebd e480 a2bc 2409 8b3c 04c1 1bbd
00000320: 0072 9cba f06c 4cbd 6056 913b 3c08 183d
00000330: b06b 82bb f850 6f3c 308d e33b 6678 66bd
00000340: 0c0c 423d ec4e 6abd b812 c53c 60fc 33bb
00000350: 9074 283c 00be 893c 945a 04bd eae3 11bd
00000360: 5486 5f3d 5c77 e9bc ecce 90bc c860 0dbc
00000370: 4060 ab3b 003d 483b 382b 1cbc ca85 643d
00000380: 3846 e7bc 00fe abbc c8f3 59bd 3493 bbbc
00000390: 9cc0 e3bc 44da c8bc b0c5 413c 2e5c 303d
000003a0: 2ea2 19bd e84d 90bc 5064 83bb d4ae 1f3d
000003b0: 4883 6f3c 9a7d 583d 94b9 74bd 2c06 163d
000003c0: 3a12 283d ae7e 083d fa8e 76bd 708a a5bb
000003d0: 40bd 27bb 605b 24bd 065f 1d3d 5811 3fbd
000003e0: 9288 02bd c2d6 043d c0b3 db3a 9824 2c3d
000003f0: 189f f63c 5ab0 6cbd 6a33 6e3d 3e68 3b3d
-0.022436567 -0.05523765 0.05746366 0.038496085 0.038611308 -0.058541916 -0.05304645 -0.01149267
0.029628642 -0.04070493 0.023219213 -0.023371913 0.02008076 -0.03732501 0.011479251 -0.014269941
-0.051747173 -0.050522976 -0.0013655648 0.0118486285 0.019773826 -0.054157063 -0.02349621 -0.030947976
-0.044395633 0.007906154 0.045432992 0.0051688775 -0.027069755 -0.027167693 -0.028291494 0.030320443
-0.05036138 0.05222124 0.057552405 0.05778878 0.006700456 0.004897684 -0.026513278 0.04538537
-0.0058856755 0.035134584 -0.017898776 -0.053816833 -0.048315696 0.028407015 0.027273364 0.02881375
0.020514444 -0.0032030866 0.027114123 -0.015722655 -0.03314387 -0.030283488 0.0039414763 -0.031554237
-0.044781648 0.05822178 -0.0496002 0.0053232014 0.030743204 -0.026204571 0.005337611 -0.02098871
-0.056267835 0.025489531 -0.0100565925 -0.04938367 -0.044660203 0.020759054 -0.057342656 0.030194141
0.018831104 0.0046943054 0.05061794 0.048665956 -0.06091264 0.0397544 -0.009465463 -0.027567543
-0.050560817 0.04559703 -0.02944082 -0.014808953 -0.05430027 -0.018618688 -0.028552763 0.033995368
0.04011192 -0.060212024 -0.0564539 -0.027239531 -0.019026414 -0.03407731 0.0446288 0.040703908
0.046205632 -0.025777653 -0.0087169185 -0.05785872 0.050825752 0.0350869 -0.055829436 -0.06035094
0.04111419 -0.029633231 0.0073233843 -0.057421587 -0.0121141 0.044289097 -0.039043747 -0.00552509
-0.006315142 0.062104076 -0.05679156 0.019078963 0.06113121 -0.012103766 -0.029404372 0.04131069
0.03229805 0.062234305 -0.027931757 -0.05885224 -0.0038214475 -0.0060486943 0.0070301816 -0.011935063
-0.05323764 -0.043124355 0.0551138 0.007323101 -0.0524209 -0.041052118 0.029284038 0.031987846
0.053756036 -0.026772283 -0.0384885 0.0063710064 -0.0017681271 -0.016079284 -0.010815166 0.0304147
-0.0037387162 -0.016000465 0.008806229 0.043374203 -0.029497102 0.043849163 -0.02854845 -0.044327624
0.036020182 0.038756616 0.05672577 0.055927023 0.053024396 -0.013186969 0.059874557 -0.040343314
0.0024316236 -0.0007465705 -0.042217337 0.039542146 -0.034429356 0.001047194 0.0518528 -0.062456734
0.017306358 0.047057524 0.0012024716 -0.0062260926 -0.03966999 0.036006168 -0.0021424964 -0.02524285
0.053042896 -0.056919582 -0.021607302 -0.027475722 -0.01582218 0.024663359 0.048052393 0.024358764
-0.054928996 -0.025257632 0.002037719 -0.041770443 0.010462619 0.01894208 -0.032574795 0.01955659
0.0046954975 -0.062193587 -0.018063456 0.043242685 -0.06201244 -0.01983685 0.016972132 -0.03802587
-0.001193583 -0.04990858 0.0044353455 0.037117228 -0.0039801225 0.014606707 0.006944321 -0.056267165
0.04737477 -0.057204172 0.024056777 -0.002746366 0.010281697 0.016814232 -0.032312945 -0.035617746
0.054571465 -0.028499298 -0.017676793 -0.0086290315 0.0052299798 0.0030553937 -0.0095317885 0.055791654
-0.028231725 -0.02099514 -0.053211004 -0.02289734 -0.027801804 -0.02451814 0.0118269175 0.04305666
-0.037508182 -0.017615274 -0.004009761 0.03898509 0.014618702 0.052854158 -0.059747294 0.03662698
0.041033007 0.033323936 -0.060194947 -0.0050519034 -0.002559498 -0.040126204 0.0384207 -0.0466474
-0.031868525 0.03243137 0.0016761944 0.042027086 0.030105159 -0.05778537 0.0581545 0.04575371

2.bias f4 [256]
00000000: 98dd 803c 0049 8f39 a4dd d6bc c0d5 fdbb
00000010: a4b2 1b3d 88f9 36bc 0a51 51bd 3893 013d
00000020: 04b4 77bd 2449 2bbd 7c9b 44bd fc8c 63bd
00000030: 4c8a a23c 168e 263d 68f4 9ebc 00ba d13a
00000040: 102b 02bd c061 86bc 9038 c43b 9a33 2c3d
00000050: 1c7c 3fbd 40d2 e53c 90ec 4abc 1c6d 97bc
00000060: 66f5 2ebd 70e3 a8bc c878 8a3c f0ad 883b
00000070: 0c1a 9a3c 8c64 c3bc 00af a439 a019 0cbb
00000080: 3a45 453d 8008 7fbd 0461 7abd a40d 08bd
00000090: a037 6abc c83f aabc ca15 4e3d 784d 30bc
000000a0: 4440 7d3d 006d 4b3c 1e75 04bd dcc3 a23c
000000b0: 9c32 d5bc 30ee f13b 80f7 32bd 5471 b0bc
000000c0: 480a 043c bc22 863c b2e2 55bd 12cc 6fbd
000000d0: 744e 00bd e8b2 40bc b826 c8bc a6a7 743d
000000e0: 9c3a 213d 80b5 b4bc a0a6 973c c851 583d
000000f0: 18f8 623c 80df fabb 801c 313a b01a 653d
00000100: 446a 543d aee5 7a3d fc0c 74bd a478 ea3c
00000110: 00c0 88ba 6c0e 66bd ce2c 7e3d 40fc 853c
00000120: c29f 21bd 8afd 213d 8ef5 1ebd d21f 4ebd
00000130: 5207 57bd 4842 05bd 8086 70ba 80cd 4aba
00000140: 4c8b fdbc 42fc 073d e822 4c3d e65f 033d
00000150: 2c7f 84bc 1444 883c 90b8 f9bb 3cd2 16bd
00000160: 6ce9 823c 6052 f93c de23 6a3d e623 6e3d
00000170: 881c 2ebc 389f 02bc 46d6 3cbd 9434 bb3c
00000180: 1aba 06bd dcd4 663d 4025 b53a 98db c3bc
00000190: 7650 033d 68ca 2d3d 7c9f c33c a88d fa3c
000001a0: 6000 f1bb 48c4 edbc d675 403d 74cb 873c
000001b0: 605c 4cbc 38f8 833c 7039 c6bc 1cf5 ce3c
000001c0: 9ab9 04bd 22aa 6a3d e49e 4abd 4294 76bd
000001d0: 609c 6abc 58c4 553d a45d 83bc 8cba 23bd
000001e0: cc6e 633d c02f fcba a6ad 6cbd 841a 0fbd
000001f0: 50b4 6dbd b8fe 3abc 54c0 8b3c 88b9 d03c
00000200: 4050 3e3c 006c a93a 3415 d23c 7ee5 763d
00000210: 60fa 4d3d a655 4bbd 3cbc 893c 78d3 b4bc
00000220: 62cc 48bd c42c 453d 30e3 893c 985f 2d3d
00000230: 1823 abbc 7a1b 683d acd0 393d 4024 7bbb
00000240: 9edc 78bd 12fc 3cbd 883e c63c 509b 50bd
00000250: a0d4 51bb 0cdb 753d e48e ba3c ecf0 d2bc
00000260: 4cc9 e43c f40c 9ebc aae0 073d 80fc a2bc
00000270: 9cf2 7ebd c62e 553d 8af9 45bd ce19 683d
00000280: 1c39 073d c27d 47bd 504f f9bb 8026 a83a
00000290: 0646 5a3d 804d 793a 3a7f 46bd 381c 7ebd
000002a0: 88f3 2b3d c0b6 9a3c 80c0 25ba a409 a8bc
000002b0: c6c2 2f3d c0cd c83b c8ba 27bd 304d 9a3c
000002c0: 04d4 84bc 5c09 b33c 3ca3 553d 6a91 6a3d
000002d0: 702d 273c 78e2 65bd 7078 94bc eac7 11bd
000002e0: 8046 1bbb 46d5 323d dc14 9abc fce5 a5bc
000002f0: 400e 96bb 70f0 d63c b2c8 06bd 78f2 64bc
00000300: 243a ccbc a20f 41bd 20bf 0fbc f60e 75bd
00000310: 381b 6bbd 88ee a2bc 20e5 183c 0adf 273d
00000320: acef bfbc 2a27 29bd acdc cebc 00be 41bc
00000330: 6c47 f33c b067 7c3c a075 ccbb 84ef 9bbc
00000340: d8b1 1e3d 60ac 47bb a861 3a3d e033 833c
00000350: 58eb 0ebc 9607 213d a04d e2bc bcfd c9bc
00000360: c060 05bc 58e6 30bc 0ef3 1e3d 1449 263d
00000370: 5e50 7cbd 42da 4ebd 966c 29bd c866 3e3c
00000380: a084 0f3c a813 31bd 7e1d 5c3d a2c0 103d
00000390: b00f d2bc 9035 c8bb 162e 1b3d e413 28bd
000003a0: 3896 90bc 801d c4ba ee29 2dbd 50f2 9d3c
000003b0: 46d5 5e3d d005 3bbd 50cc ef3b 46b1 373d
000003c0: 00cf 31bd 2eca 67bd 2edc 6f3d 6090 f8bb
000003d0: c489 773d e8b1 2a3d a008 8c3c da39 1c3d
000003e0: 4c0c 6f3d fc18 35bd 9ee1 4ebd a0b1 3d3b
000003f0: 8ace 32bd 14f0 8b3c 808e 1f3a 689c 40bc
0.015730664 0.00027329475 -0.026228733 -0.0077464283 0.03801216 -0.011167891 -0.051102675 0.03163454
-0.06047441 -0.0418178 -0.047999844 -0.055554375 0.019841336 0.040662847 -0.019403651 0.0016000867
-0.03177935 -0.016404033 0.005988188 0.0420414 -0.04674922 0.028054357 -0.012385502 -0.018484645
-0.0427145 -0.020616263 0.016903296 0.0041711256 0.018811248 -0.023851655 0.00031410903 -0.0021377578
0.048161723 -0.062263966 -0.061127678 -0.033216134 -0.014295489 -0.020782366 0.05031375 -0.0107606575
0.061828867 0.012416124 -0.032338254 0.019868784 -0.026025109 0.0073831305 -0.043693066 -0.021538414
0.008059092 0.016373985 -0.052218147 -0.058544226 -0.03132482 -0.011761405 -0.024432525 0.059730195
0.039362535 -0.022059202 0.01851207 0.052812368 0.0138530955 -0.007656038 0.0006756261 0.055933654
0.051859155 0.061254196 -0.059582695 0.028621979 -0.0010433197 -0.056166098 0.062054448 0.016355634
-0.039458998 0.039548434 -0.038808398 -0.050323315 -0.052497216 -0.032533914 -0.00091753155 -0.00077363104
-0.030950211 0.033199556 0.049837977 0.032073878 -0.016173922 0.016634025 -0.0076208785 -0.03682159
0.015980445 0.030434787 0.057163112 0.058139704 -0.01062692 -0.007972531 -0.046102785 0.02285222
-0.032892324 0.056355342 0.0013820305 -0.023908421 0.032059155 0.042429358 0.023879759 0.030585125
-0.007354781 -0.029024258 0.046987377 0.016576506 -0.012473196 0.01610957 -0.02419731 0.025263362
-0.032403566 0.057291158 -0.049467936 -0.060199983 -0.014319509 0.0521892 -0.016035862 -0.039972827
0.055525586 -0.0019240305 -0.05778279 -0.034937397 -0.058033288 -0.011413269 0.017059483 0.025479093
0.011615813 0.0012925863 0.025644876 0.060277455 0.050287604 -0.049642228 0.01681339 -0.022073492
-0.04902304 0.048138395 0.016831964 0.042327493 -0.020890757 0.05666683 0.04536502 -0.0038321167
-0.060757272 -0.04613883 0.02419974 -0.050929368 -0.0032017604 0.060023353 0.022773214 -0.025749646
0.027928017 -0.019293286 0.03317324 -0.019895792 -0.06224309 0.05204656 -0.048333682 0.056665234
0.033013448 -0.048703916 -0.0076083317 0.0012828857 0.053289436 0.00095101446 -0.048461176 -0.06203863
0.041980296 0.01888597 -0.0006322935 -0.02051241 0.04291036 0.006128043 -0.040949613 0.018835634
-0.016214378 0.021855049 0.052157626 0.057267584 0.010203704 -0.05612418 -0.018123835 -0.035591044
-0.0023693144 0.043660425 -0.018808775 -0.020251267 -0.0045793355 0.026237696 -0.03290624 -0.013973825
-0.024930067 -0.04713405 -0.008773595 -0.05982872 -0.057399005 -0.019889131 0.009331971 0.04098419
-0.023429714 -0.041297115 -0.025251709 -0.011825085 0.029697143 0.01540558 -0.006239608 -0.019035108
0.038743824 -0.0030467734 0.04550329 0.016015947 -0.0087231025 0.039313875 -0.027624905 -0.024657123
-0.008140743 -0.010797106 0.038806014 0.040597036 -0.06160008 -0.050501116 -0.04136332 0.011621185
0.008759648 -0.043231636 0.053739063 0.03533996 -0.025642246 -0.006109901 0.037885748 -0.041034594
-0.017649755 -0.0014962405 -0.042276315 0.019280583 0.054402612 -0.04565984 0.007318057 0.044846795
-0.0434103 -0.056589298 0.05855959 -0.00758557 0.060434118 0.04167357 0.017093956 0.03814111
0.058361337 -0.04421328 -0.050508134 0.0028944984 -0.043654002 0.017082252 0.0006086603 -0.01175604

4.weight f4 [35, 256]
00000000: 40e6 c03b c874 fb3c 0005 abba c00b 0d3c
00000010: 968a 11bd 5884 55bd 8498 90bc 0815 60bd
00000020: 600c 41bb 58b0 283c 5458 0abd b6a0 68bd
00000030: 109b 743d 0617 1abd 2096 4abb 0039 55bb
00000040: 6404 46bd 147c f8bc 0866 41bc 3ccf b7bc
00000050: 90b9 853c 76eb 113d c072 7fbd 2859 523c
00000060: f8b4 2fbd 321d 0d3d f67b 623d 1c95 343d
00000070: 36e2 3abd fa4e 30bd 86d9 723d 8c18 adbc
00000080: 1c3f 74bd 1c17 f83c f2e1 073d 1cb7 713d
00000090: 1088 c83b 64d5 f23c 4843 eabc 2c47 b73c
000000a0: 3489 6cbd c087 823a 1080 8d3c 9c98 1e3d
000000b0: ce8a 08bd 8678 543d 50eb cbbc 0430 e43c
000000c0: 4852 73bc 0a15 35bd 404d b2ba 9410 13bd
000000d0: c097 66bc 7c12 6abd 2801 2bbd 3c2b e1bc
000000e0: 8001 37bd b0eb 94bb dc5d bc3c 485c 693d
000000f0: 9c96 d8bc 085b ab3c 00d0 b938 80ed 57bc
00000100: d015 6c3d 60c9 c33b e236 4f3d 4806 623d
00000110: cc61 c23c e063 6c3b ec55 6a3d 0057 b53c
00000120: 9836 3abc 569b 1bbd 00e8 b13a c06e 763d
00000130: b662 033d 9877 80bc 1601 3dbd d86b 9e3c
00000140: d0d5 05bc 7065 1ebc 66db 6dbd a652 70bd
00000150: d8d2 0b3d 0018 9e3c 603f 013b 4cf0 243d
00000160: 80d2 8fba 489a 363d 6017 5fbc 60d4 6abb
00000170: 6016 303c 00f5 d6b9 d074 33bc 603d eabc
00000180: 78e2 0cbc 26d0 65bd a48b b0bc 34c3 b03c
00000190: f663 14bd 003b 62ba 34d5 9c3c 3c85 823c
000001a0: 00c5 1ebd 80d8 74bc 5c6f e1bc a2a8 78bd
000001b0: 907a 2bbc 248f 9e3c 305a 563c 0070 35bd
000001c0: 009c 6c3c c008 3a3c 20a6 3a3b 38a3 d8bc
000001d0: 44c3 22bd 5638 1abd 40a3 b83c 72f5 0f3d
000001e0: a030 113b 607b 173b 0030 4fb8 cc9c 9c3c
000001f0: c6e2 583d d8d1 3b3c 88e8 c43c d893 b8bc
00000200: 14ac 64bd d8a7 dcbc 8a09 75bd 74f2 dd3c
00000210: eee9 733d 8800 703d 4219 6bbd 9472 2d3d
00000220: 7042 8d3b dcfa 103d 10a4 a8bb bc51 89bc
00000230: dc12 9e3c c0d8 a2bb 90e3 61bc 6884 1c3d
00000240: 0066 3cb9 a0f3 1bbb b8e1 d03c d403 b53c
00000250: acff 95bc 6cce ccbc 68a4 74bd 50db a6bc
00000260: 0c5f 803c 08be 6ebc b028 debb 28c3 37bc
00000270: 3cf9 cc3c a8e8 4b3d 48ee 273c 2628 0d3d
00000280: f4b9 11bd 801b c33b c0cf dc3b 84a0 d53c
00000290: b690 443d 1895 e5bc 7042 e9bc 5ae3 00bd
000002a0: 42ff 76bd 0a2b 33bd 7c6d 04bd dc54 47bd
000002b0: 04ef 543d cc36 fdbc 80fa 913c a8ec 473c
000002c0: d0b4 813b 24aa ee3c 7018 2b3d 501e e3bc
000002d0: 3c77 563d b0bc 52bc 788a 083c 884f 8bbc
000002e0: 1092 913b 1e69 753d cc25 1d3d c850 ffbc
000002f0: 28a7 47bd d079 b73c 5071 5abc f40f bebc
00000300: 700e e23b c064 9b3c 500e 10bd 3ee4 24bd
00000310: 7061 473c 60f1 93bb 4298 67bd 981c 8d3c
00000320: c0d1 283c f2e6 0ebd 00c3 04ba 007e c13c
00000330: 9cf7 fb3c a026 1ebc 18da 953c ac45 f4bc
00000340: 5636 17bd a864 10bd 8c94 b0bc 4097 c9bb
00000350: 0c92 39bd 80ff 24ba 36a4 77bd 78db dcbc
00000360: 1008 3bbd 802a 5f3b 3e10 02bd 3840 6b3d
00000370: 4021 cb3b 2a96 443d c42d bd3c 2895 c9bc
00000380: 7603 333d 0055 c5b9 40b7 923c c063 293d
00000390: 688d 6dbc e009 453b ea8d 11bd 7463 9e3c
000003a0: 1295 0f3d 32d7 37bd 4ee9 513d cc2a 733d
000003b0: 3e37 2cbd d0b5 df3b 5efc 0d3d a05f e13b
000003c0: 5acd 63bd e25e 273d ec44 b03c 46a8 73bd
000003d0: a8b0 183d 20a8 d93b e2b6 3e3d 40d4 1e3c
000003e0: 24ed b6bc 9895 0ebc 4ef7 083d 3457 31bd
000003f0: ee46 4a3d 7e15 65bd 94b9 49bd b093 43bd
0.005886823 0.030695334 -0.0013047755 0.008608758 -0.035532556 -0.052128166 -0.01765085 -0.054707557
-0.002945684 0.01029595 -0.033775643 -0.05679389 0.05971819 -0.037619613 -0.0030912235 -0.0032535195
-0.04834403 -0.030332603 -0.011804111 -0.022437684 0.016323835 0.035624944 -0.062365294 0.012838639
-0.042897195 0.03445167 0.055294 0.044087514 -0.045625888 -0.043044068 0.059289478 -0.021129869
-0.0596305 0.030284457 0.033174463 0.059012517 0.0061197355 0.029642768 -0.028596535 0.022372805
-0.057748035 0.000995867 0.017272979 0.03871976 -0.0333355 0.051872753 -0.02489248 0.027854927
-0.01485116 -0.044209518 -0.0013603345 -0.035904482 -0.014074266 -0.057146534 -0.04174915 -0.027486436
-0.044679165 -0.0045446977 0.022993974 0.056972772 -0.026439004 0.02091743 8.8602304e-05 -0.013179183
0.05763799 0.0059749335 0.05058945 0.05518177 0.023728274 0.0036070272 0.057210848 0.022136211
-0.011365555 -0.037989937 0.001357317 0.060164213 0.03207656 -0.015682027 -0.046143614 0.019338533
-0.008168653 -0.009667739 -0.058070563 -0.05867257 0.034136623 0.019298553 0.0019721612 0.040268227
-0.0010972768 0.044580728 -0.013616413 -0.0035832152 0.010747522 -0.000409998 -0.010953143 -0.028593719
-0.008598916 -0.05610671 -0.02155096 0.021577455 -0.036228143 -0.00086300075 0.019144632 0.015932672
-0.038762093 -0.014944196 -0.02751892 -0.060707696 -0.010466233 0.019355364 0.013083026 -0.044296265
0.01444149 0.011354625 0.0028480366 -0.026445016 -0.039737 -0.037651382 0.022538781 0.035146184
0.0022154227 0.0023114309 -4.939735e-05 0.019117735 0.052950643 0.011463605 0.02403666 -0.022531435
-0.05582817 -0.026935503 -0.05982355 0.02709315 0.059549265 0.058594257 -0.057397135 0.0423456
0.0043108985 0.03539549 -0.005146511 -0.016762607 0.019296102 -0.0049696863 -0.013787165 0.03821221
-0.00017967075 -0.0023796335 0.025498256 0.022096552 -0.01831039 -0.025000773 -0.059727103 -0.020368248
0.015670322 -0.014571674 -0.0067797527 -0.0112159625 0.025021188 0.049782425 0.010249682 0.034462117
-0.03557773 0.005954206 0.006738633 0.026077516 0.04798957 -0.028025195 -0.028474063 -0.03146682
-0.060302027 -0.043742217 -0.032330975 -0.048664913 0.051985756 -0.030909918 0.017819643 0.012202419
0.003958322 0.029133864 0.041771352 -0.027724415 0.052359805 -0.012862369 0.008333795 -0.017005697
0.004442461 0.0599147 0.038366124 -0.03116645 -0.048743397 0.022396952 -0.01333268 -0.023200966
0.0068986937 0.01896894 -0.0351699 -0.04025673 0.012169227 -0.004514858 -0.05654169 0.017225549
0.010303915 -0.034888215 -0.00050644577 0.023619652 0.030757718 -0.009652764 0.018292472 -0.029818378
-0.036917053 -0.035252243 -0.021555208 -0.0061520636 -0.045305297 -0.0006294176 -0.060459338 -0.02696012
-0.045661986 0.0034052432 -0.03175377 0.05743429 0.006199032 0.04799477 0.023093112 -0.024607256
0.043704472 -0.00037638098 0.017909646 0.041354895 -0.014499046 0.00300657 -0.03553573 0.019334532
0.035054274 -0.04488296 0.051247887 0.059366986 -0.04204487 0.0068270937 0.034664504 0.0068778545
-0.05561576 0.04086197 0.02151724 -0.05948665 0.037277848 0.0066423565 0.04656113 0.009694159
-0.022329874 -0.008702658 0.033438973 -0.043296054 0.04938405 -0.0559287 -0.049249247 -0.047748268

4.bias f4 [35]
00000000: 20d7 6f3d d000 8bbc 128b 73bd 6884 36bc
00000010: 54ab 893c b46f dcbc d8c9 c6bc c2bf 62bd
00000020: f822 383d 806d fa3b 9ac7 4a3d e0ae 423c
00000030: ec3a 623d 101f 28bd 20cf 49bc 90a6 303c
00000040: d6c4 77bd 4ecd 433d 5ee6 2f3d 92ba 093d
00000050: 6ef0 683d b4c0 e73c 5626 1cbd b4b2 5b3d
00000060: 76a2 69bd 9431 383d d8d7 1cbd f843 08bd
00000070: 4e09 4c3d d8c2 3ebc 60a1 6bbb 1813 b93c
00000080: d852 ab3c c067 513b 1a2b 6ebd
0.05855477 -0.01696816 -0.0594588 -0.011139967 0.016805328 -0.026908733 -0.024266168 -0.055358656
0.044955224 0.007642448 0.04950676 0.011882514 0.055231974 -0.04104525 -0.012317449 0.010781899
-0.06049045 0.047803216 0.042944305 0.033625193 0.056869917 0.02829013 -0.038122497 0.05363722
-0.0570397 0.044969156 -0.038291782 -0.033267945 0.04981356 -0.011643134 -0.0035954341 0.022592112
0.020913526 0.003195271 -0.058146574
