hyperparam/test_20241121_212902/snn_model_default.pth (torch, 327164 bytes, 6 tensors)

0.weight f4 [256, 20]
00000000: 13d2 e23d f1e4 bd3d aba5 64be 130f 9d3c
00000010: a905 0ebe 97d1 bfbd 3ff9 a4bd 2974 16bd
00000020: 7ece ba3d 609a 22be b43e 633e 3f9c 52be
00000030: 97be 0d3e 67f2 5c3e 219c adbd bb2a 8dbd
00000040: d1cf 343e 5dd8 26bc 6c0a 173e 7527 1bbe
00000050: a524 403e 8c9d 40be 0dfe 33be 7668 a53d
00000060: 58ea 163e 7f32 23be d656 5ebe 8fde 98bd
00000070: 297d f23d f56b 173e 7e67 e03c 29a2 c83d
00000080: ac63 bf3d 9a23 8cbd b0d0 4a3e 9f79 27be
00000090: 5e58 ce3d 6e6f 0cbe b4a2 0bbd f7fd 413e
000000a0: 9d14 993d 2826 13be 1a57 a5bd ec4a 203e
000000b0: 8524 303d ce27 4b3e 7ce1 cabc d283 32be
000000c0: c290 063e e6ae 57be fa3b 0d3e 8f80 cebd
000000d0: 40dc 743c 7804 643d a329 d13d e1f2 813c
000000e0: eacf 3cbe 209e 093e 997b 283d 7b08 b63d
000000f0: 7c89 a4bb 8371 2abc ac34 4ebd 27cc 373d
00000100: f59d 0a3e 95da b4bd bf34 f73d 7ee4 b33b
00000110: 34f6 a7bd 81f1 52be 2fa5 bcbd d55a 053e
00000120: 3451 15be 9347 143d 790a 5d3e 1357 403e
00000130: 5a29 59be f722 55bc b959 53be 917e 18be
00000140: cf66 efbd 0ada 5a3e aa1e 003e fd15 583e
00000150: bb45 c2bc d5bd 32bd 0a7e 8ebd 2e8e c43c
00000160: 3677 3fbe 4793 10be d12c 88bd e28c 7bbd
00000170: d480 403e ab9d 1fbe 9651 20be fc07 d0bd
00000180: 98f0 5ebe 6193 303e 91d6 4fbd e7a9 033d
00000190: dce7 1dbe 603a 99bd c712 53bd 1eb4 0e3e
000001a0: 3b60 b4bd 96d3 4a3e 747d 1fbd aedd 283d
000001b0: c720 a43d 7e35 9ebd bc23 5ebe 7040 3dbc
000001c0: fb1b 67bd 66df 40bc c50c fa3d 9040 4f3e
000001d0: 0459 14be fabf 44be 1c87 123e dc3d 23be
000001e0: cd1b abbd 0abf c3bd 9c4d 14be ed21 213e
000001f0: de6f 21be fe63 5c3e 6132 61be 524e 19be
00000200: ad00 3a3d e77a 413e c930 01bb 0ffe d6bd
00000210: 0c21 3cbd df3c 3c3e a979 31bc 9b83 153e
00000220: 8cb7 e9bd 448f eebc 2201 20bd 5403 30be
00000230: cd4d a83d d62a 6e3d 17a8 cabd a087 4abd
00000240: bfcc ffbd e80e 953d aa50 17be 59f7 eabb
00000250: e464 5f3d 56e8 4cbd 9401 523e 871f d63c
00000260: b2e2 0dbe 75e4 7cbd 3493 403d 40c1 aebd
00000270: 4163 1a3d 84d5 2c3e f2c2 d8bd c575 45be
00000280: 5261 00be 12b9 b33d fb28 41be 79b7 29be
00000290: e6be 0e3e f034 993d d3f7 13be ea52 5d3e
000002a0: 2b8c db3d c4c7 19bb 0e2d d4bc 151d 9f3d
000002b0: 29d7 cb3d 3ed9 193e 1096 d3bd d4da 243e
000002c0: df9b 603e 853f 40be a0f3 9cbd 4664 21bc
000002d0: a459 543e 0b1b bf3c d8b4 b83d 9ef2 423e
000002e0: a227 f3bd 280c 0dbe f8cb 813d e99a ab3c
000002f0: 6df3 5e3e 232d 263e dc6b 643c 6381 f53b
00000300: bbdb 5ebe 2c8e be3c 67b9 1cbe 2670 2dbe
00000310: f3d2 1ebe 3133 233e dbfa 73bd af3c 033e
00000320: cec6 b33c 0d84 0f3d 2b3f 513e a08d f33a
00000330: 9aba 503e 8d0a e53d b2af 25bd f561 133e
00000340: f63e b8bd 80a0 373e d957 333e 859e cd3d
00000350: 80a8 2a3e b91a 29bb c67a b03d 43fc 1b3d
00000360: 6086 83bd a339 d63c 88b0 c3bc d2ea 4a3d
00000370: 3a62 b43d 9814 44be f2cb d03d fcbd 473e
00000380: b0c0 ad3d 45f0 e83d 4092 8f3c c59e 9e3c
00000390: f1af 36be 0f87 3fbe ba01 8d3d 7776 53be
000003a0: 738e 89bd 5785 f4bd 236b 5e3e 2c07 503e
000003b0: 9d95 593e 55e2 373e f583 753c f052 183e
000003c0: 2de4 9f3c c23c 053d 2af4 1cbe b52c 373e
000003d0: 52b6 973c f471 173c d1a2 2abc 4bc9 7f3d
000003e0: 4b4e 0bbe 9819 423e 9138 e1bc 2d4a 71bd
000003f0: a4ec fabc 72ae 2a3c 5082 1c3b 45b7 073d
0.11075225 0.09272183 -0.22328822 0.019172227 -0.13869347 -0.09366148 -0.080553524 -0.036731873
0.091214165 -0.15879202 0.22191888 -0.20567416 0.13842236 0.21576844 -0.08477045 -0.06892916
0.176574 -0.010183421 0.1475007 -0.1515177 0.18763979 -0.188101 -0.17577381 0.08076565
0.14737833 -0.15937231 -0.21712813 -0.07464325 0.11840279 0.14787276 0.027393099 0.097965546
0.09345183 -0.06842728 0.1980617 -0.16354989 0.100754485 -0.13714382 -0.034090713 0.18944536
0.07474635 -0.14370024 -0.08073254 0.1565358 0.043003578 0.19839403 -0.024765722 -0.17433098
0.13141158 -0.21062812 0.1379241 -0.10083114 0.01494509 0.055668324 0.1021302 0.015862884
-0.18438688 0.13439226 0.041133497 0.08888336 -0.005021272 -0.01040304 -0.0503432 0.04487243
0.13536818 -0.08830754 0.120706074 0.005489885 -0.082012564 -0.20599939 -0.09211194 0.13022931
-0.14581758 0.03620107 0.21586026 0.18783216 -0.2120718 -0.013008825 -0.20639695 -0.14892031
-0.11689531 0.21372238 0.12511697 0.21102138 -0.02371489 -0.04363807 -0.06957634 0.023993578
-0.18697819 -0.14118682 -0.06649173 -0.061413653 0.18799144 -0.1558749 -0.15656123 -0.10157773
-0.21771467 0.1724372 -0.050741736 0.032144453 -0.15420479 -0.07481837 -0.05153158 0.13935897
-0.08807417 0.19807276 -0.038938 0.041227035 0.08014064 -0.077250466 -0.21693319 -0.011551008
-0.05642317 -0.011772012 0.12209467 0.20239472 -0.14487082 -0.19213858 0.14309353 -0.15941566
-0.08354912 -0.09557922 -0.1448273 0.15735598 -0.1576533 0.21522519 -0.21991874 -0.14971283
0.0454108 0.1889454 -0.0019712916 -0.104976766 -0.045929953 0.18382595 -0.010832229 0.14600985
-0.11411962 -0.029121049 -0.03906358 -0.1718877 0.08217964 0.05814632 -0.09895342 -0.04944575
-0.12490224 0.07278234 -0.14776865 -0.0071705994 0.054539576 -0.05002626 0.20508415 0.02613808
-0.13856009 -0.06174131 0.047015384 -0.08532953 0.037692312 0.16878325 -0.10584058 -0.19283207
-0.12537125 0.08775534 -0.18863289 -0.16573896 0.1394001 0.074808 -0.14450006 0.2161366
0.10720094 -0.0023465017 -0.02590039 0.07769219 0.09953148 0.15024278 -0.103313565 0.16099101
0.2193446 -0.18774231 -0.07663655 -0.009850567 0.2073732 0.023328325 0.09018868 0.19037864
-0.11872794 -0.13774168 0.06337732 0.02094789 0.21772547 0.16228156 0.013941731 0.0074922307
-0.21763508 0.023261152 -0.153051 -0.16937312 -0.15510158 0.15937497 -0.059565406 0.12816118
0.021945383 0.035038043 0.20434253 0.0018581636 0.20383683 0.11183653 -0.04045076 0.14392836
-0.08996384 0.1793232 0.1751398 0.10040001 0.1666584 -0.0025803281 0.08617167 0.038082372
-0.06422114 0.02615053 -0.023887888 0.04954035 0.08807798 -0.19148481 0.101951495 0.19506067
0.08484018 0.11373953 0.017525792 0.019362817 -0.17840554 -0.18703865 0.06885095 -0.2065066
-0.06716623 -0.11939495 0.21720557 0.20315236 0.21248479 0.17957433 0.014985074 0.14875388
0.019517982 0.032528646 -0.15327516 0.17888148 0.018519554 0.009243477 -0.010414795 0.062447827
-0.13604085 0.18955076 -0.027492793 -0.05890863 -0.030630417 0.010417568 0.0023881383 0.033133764

0.bias f4 [256]
00000000: a093 b23d 28bc b2bd b7ee 023e 3493 2f3b
00000010: 6f1f c03b d433 d23d d9a7 483d 85e4 f13d
00000020: 57a2 1d3e 4f1f b93d b179 33be 5655 123e
00000030: 9890 a23d fc2a 08bd 7304 ff3d fb44 d43d
00000040: e395 11bb e593 11be 82d5 59be 3f24 96bd
00000050: 4242 b8bd 1a84 863d c15f f13d fc38 43bd
00000060: ba4a 4a3e 6f84 453e 0982 0abe 5216 57be
00000070: 836b dcbc 138b 94bc ff4c 32be 9b89 493e
00000080: 2eae 58be 3b5d 4e3d 6ba6 15be 1f1b 533e
00000090: b112 64be 8c54 b53c 7946 bdbb 4d25 023d
000000a0: 98fd 2d3e 494c 03be 70d8 283e 95f7 28be
000000b0: bfbe 87bd 1072 c43d 0b66 353d 43b1 cdbd
000000c0: 7a8b 2abd c736 db3d 8f57 22be e6c4 bf3d
000000d0: 11ae b0bc 8a5b 99bb 2d6a 553e 2350 653d
000000e0: 3130 07be 432c 1d3e 47db 623e 0cf5 b93c
000000f0: 89e9 183e 6400 42be 5ca1 be3d c4ca 033e
00000100: 4367 f2bd d0c2 54bc 2024 61be a0d2 d6bd
00000110: d69d 2a3e 5c55 45bc 6ed0 bfbd 8815 4c3e
00000120: 033a 593e e801 1c3e 5ef8 873d 31d1 3f3e
00000130: eccf 4cbe 09ff 3e3e f723 86bd 75da 063d
00000140: 5ceb 433e 2959 d43c 00a7 863d 38f4 5cbe
00000150: 6f37 38be f10e febc 3cc0 13bd 7d96 253e
00000160: c71c 6ebd 5798 78bd 0da9 0cbd c792 6abd
00000170: 67d4 573d 80b0 84bd d104 3cbd 4210 22bd
00000180: d72d 34be 2118 333e 943c 433e 0d90 14bd
00000190: f911 44be a476 a9bd 26d9 ecbd ff93 2ebe
000001a0: 7ca8 ae3d 97f8 34bd 7ab1 1ebe 2d1f ccbd
000001b0: 4d4b 34be 43f7 4cbe c3de 4e3e a0b6 5ebe
000001c0: a036 d43d b5a9 c1bd 8a28 27be a7ce 1fbb
000001d0: 4abd 78bd 0fe8 573e f4c0 1ebd 6168 4c3d
000001e0: 3d0f 423e bd87 bdbd 4bc7 543e e3c0 bd3d
000001f0: c23c 95bd 0320 11be 13ef 2ebd 6f6f 443d
00000200: b101 4ebd 83e8 cf3d 75fb c63d c991 163c
00000210: 3079 c33d 89c7 dabd 47c8 87bd 9a87 ae3c
00000220: 0ec9 8cbd a1d9 ee3d 0c5b bdbc d332 00be
00000230: 11bb 323e eb96 9f3c 28e6 7a3c 9516 653c
00000240: 465d 52be 3d34 643e cfaf 3638 0959 1c3e
00000250: 4607 f03d b8b8 b23d 8477 653d 8604 53bd
00000260: c174 1ebe 25c6 24be c915 45be ab92 b5bd
00000270: bebf 61be 8528 24be ba80 5dbd 4e31 ce3d
00000280: 50d1 6ebd 6ec6 62be 900e 28be a038 f23d
00000290: 0181 41be e78b 8d3d 7264 173e 49d0 4fbe
000002a0: a252 413e d3ca 2bbe 5eb5 63be d349 e03d
000002b0: 87d9 62be d3ca 42be 0f59 69bd 8d4b 983d
000002c0: 229f 633e a039 d9bd f6af aebc 35e8 7f3d
000002d0: c9ab 1f3e 5eaa 61be 0a52 773c a357 10be
000002e0: 6710 9ebd b4f9 8bbd e762 b73d a48e 093e
000002f0: 2b7b 533e 9ead 5dba 2252 9fbd 30e0 40be
00000300: e268 013d f1e0 4b3e 641a 09be aad0 4cbe
00000310: d878 fc3d 81ac 42bd ccc3 373e 0957 dbbd
00000320: 2e79 083e 11d4 57bd a2f0 93bd f8e9 a4bd
00000330: 69f0 e73d 3a90 83bd d400 7d3d 2591 883d
00000340: aa29 12bd 8433 38bd bb5c ffbd e3d5 3a3d
00000350: 9f03 7d3c 0753 bfbd a541 febc 7bda 6fbd
00000360: b62a 34be b593 30bd c308 813c 6316 97bb
00000370: 90d2 153e 5136 cb3d 7f6d b03c cce4 603d
00000380: a554 1e3c da85 03be e66d 40be 4bce 633e
00000390: fed8 1a3e 7364 f93d c38e 633e ac64 093e
000003a0: 71f3 4c3e ee37 253e 2e5e a13d 1c12 09bd
000003b0: 1ded 4abd 1166 143d a6c6 d7bc dcf9 20be
000003c0: dd70 04be f221 5e3e d3b9 0e3e 37a2 02bd
000003d0: d39e bc3c ccf2 353e 62ae b73c d37a d33d
000003e0: 315d 5f3e 7369 243e 3bc1 4dbe e9ee 303e
000003f0: 07aa 32be 0b9b 4fbe e52b 7a3c b404 2d3c
0.087195635 -0.08727294 0.12786375 0.002679062 0.005863122 0.10263792 0.048988197 0.11811165
0.15393959 0.09039175 -0.1752689 0.14290366 0.07937735 -0.033244118 0.124520205 0.103647195
-0.0022214584 -0.14216574 -0.21272853 -0.07331132 -0.08997013 0.06568165 0.11785842 -0.047661766
0.19755068 0.192888 -0.13526167 -0.21004608 -0.026906734 -0.018132722 -0.17412184 0.19681399
-0.21160194 0.05038188 -0.14614265 0.20615815 -0.22272755 0.022135042 -0.0057762233 0.031773854
0.1699127 -0.12822069 0.16488814 -0.16500695 -0.06628179 0.09592068 0.04428677 -0.100435756
-0.04163692 0.10703807 -0.15853713 0.09363727 -0.021567376 -0.0046801018 0.20841284 0.055984627
-0.13201977 0.15348916 0.2215396 0.022699855 0.14932837 -0.18945462 0.093081206 0.12870318
-0.11836102 -0.0129859 -0.21986437 -0.10489392 0.16661772 -0.012044277 -0.09365927 0.19930089
0.21213536 0.15235102 0.06639169 0.18732144 -0.20001191 0.18651976 -0.065498285 0.03292318
0.19132751 0.025921421 0.065748215 -0.21577537 -0.17989896 -0.031012984 -0.036072 0.16170688
-0.058132913 -0.060692158 -0.034340907 -0.057268884 0.052692797 -0.06478977 -0.04590303 -0.039566286
-0.17595612 0.17489673 0.19066077 -0.03627019 -0.19147481 -0.08274582 -0.11564855 -0.17048644
0.085282296 -0.044182386 -0.1549739 -0.09966884 -0.1760685 -0.20016198 0.20202164 -0.21749353
0.103619814 -0.09456197 -0.16324058 -0.002438465 -0.060727395 0.21084617 -0.038758233 0.04990423
0.18951125 -0.09254406 0.20779149 0.09265306 -0.07286979 -0.14172368 -0.042708468 0.047957834
-0.05029458 0.1015177 0.0971593 0.009190031 0.09544599 -0.106825896 -0.06629997 0.021304894
-0.06874286 0.11662603 -0.023114704 -0.12519388 0.17454173 0.019481143 0.015313663 0.013982435
-0.20543393 0.22285552 4.3555916e-05 0.15268339 0.11720137 0.087266386 0.056022182 -0.051517986
-0.15474226 -0.16091211 -0.19246592 -0.08865865 -0.220458 -0.16031082 -0.05407784 0.10067998
-0.058305085 -0.22146007 -0.16411805 0.118272066 -0.18896867 0.0691145 0.1478441 -0.20294298
0.18879178 -0.1677659 -0.22237155 0.10951581 -0.22153293 -0.19022684 -0.0569697 0.07436285
0.22228673 -0.10606694 -0.02132414 0.06247731 0.15592875 -0.22037646 0.015095243 -0.14095931
-0.07717972 -0.068347365 0.08954411 0.1343332 0.20652454 -0.0008456352 -0.077793375 -0.1883552
0.031594165 0.19910027 -0.13388973 -0.20001474 0.123277366 -0.047527794 0.17945784 -0.1070996
0.13327476 -0.052692477 -0.072236314 -0.080524385 0.113251515 -0.064239934 0.061768368 0.06668309
-0.035684265 -0.044971004 -0.12468859 0.045614135 0.015442758 -0.09342008 -0.031037161 -0.05855797
-0.17594418 -0.043109614 0.015751248 -0.004610823 0.14631104 0.099224694 0.021536587 0.054905698
0.0096637355 -0.12844029 -0.18791923 0.22246663 0.15121838 0.12177362 0.22222428 0.1341731
0.2001474 0.16134617 0.078792915 -0.033464536 -0.049542535 0.03623015 -0.02633984 -0.15720314
-0.12933679 0.21692637 0.13938074 -0.03189298 0.023024952 0.17768401 0.02242202 0.10326161
0.21812893 0.1605585 -0.20093243 0.17278637 -0.17447673 -0.20273988 0.015269254 0.010560203

2.weight f4 [256, 256]
00000000: e64d 3e3d 60ad fd3b f84f f23c 48ec 743c
00000010: c08f bb3c 60aa 2cbb f02b d13c 6036 77bc
00000020: f0bf f93b d258 04bd 1837 49bc 247c aebc
00000030: d866 7fbd 0618 66bd c031 f5ba 400b 85bc
00000040: d87f bfbc 80c4 31bd d89e 763d 2a61 44bd
00000050: ac64 b23c 04fb 1fbd 2812 64bc 50b0 ffbb
00000060: 38a2 803c 6233 3a3d 38a2 133d f270 063d
00000070: f66e 0c3d 9016 9a3b 30b8 753c 3cca 753d
00000080: 40c9 c83b 78ab 173c 1260 3e3d 8c12 243d
00000090: f85f 6fbc e021 f83b 6c81 43bd d8e2 133d
000000a0: b4d8 3ebd b402 743d 0245 023d e050 f33b
000000b0: 84b6 373d 7cd3 603d cca3 be3c c092 b83c
000000c0: eca2 dcbc 28c3 1d3c 2434 0d3d 4460 633d
000000d0: da44 37bd 647f 8b3c d4de c83c 5639 433d
000000e0: 887e 613c 104b 73bd 8a38 773d f876 eebc
000000f0: 6c64 c23c 7ec1 033d 522c 45bd 5a6a 5ebd
00000100: 5e19 3ebd 6ca7 cbbc 5af7 0a3d 6c24 31bd
00000110: f829 373c 88ae 55bd 102e e1bc 002c 54bb
00000120: 7261 7c3d ce8d 50bd 70e6 cebc b0aa 2bbc
00000130: 0c1f 033d b468 0bbd ccc0 2e3d 8abc 13bd
00000140: b8c3 513c 0048 643d 10a5 c83c b06e 49bc
00000150: c8f6 82bc f686 673d 9ecf 3cbd 40a4 f1bb
00000160: 400b deba 1ea1 20bd f0a1 66bc a800 99bc
00000170: ae4b 16bd 147f 2abd 7603 0dbd 442d 093d
00000180: b297 3dbd 00c2 5f3a 925d 3f3d a0ee 7dbc
00000190: 74b1 f4bc 5ed1 5abd 8c89 95bc 1828 3a3c
000001a0: c0db 313b c0c9 fcbc a8fd 323d a49e 57bd
000001b0: 3c18 2abd 168c 6d3d e02d afbc 38a4 09bd
000001c0: 7402 51bd 0204 633d 00da 8b39 fce4 d63c
000001d0: cade 483d 3ee2 1b3d 5466 59bd f095 313c
000001e0: c089 fc3b 10a5 013c 8c76 d33c 28eb 973c
000001f0: a447 e33c 38e7 4a3c 68e1 11bd 00db 44bb
00000200: 0868 e13c 00c8 713a 9e43 0cbd 0c6f 7cbd
00000210: 80d5 39bd 88eb 153c ce9c 113d 00f1 a23b
00000220: 7857 76bc 28cd 4b3d b086 2fbd 5c10 5bbd
00000230: 3a65 11bd c8ee 133d 4a6f 0fbd 12ff 113d
00000240: 38f7 663d 640e bcbc dcbc 4ebd 1207 153d
00000250: 1094 023d 38f3 5dbd 64f8 073d ec4b 28bd
00000260: ba3b 40bd de7e 103d 087f 36bc 80e0 8eba
00000270: 5c42 923c e87d 0a3c 7693 193d c02e 733c
00000280: 1444 21bd 5efe 3fbd 50a5 d43b 147b 393d
00000290: 5064 47bc f2f3 1b3d 1843 03bc d80e a6bc
000002a0: a0f2 943b 34e5 cebc c231 0b3d 02ad 1bbd
000002b0: 5e5a 773d a899 9e3c c4fe 373d c057 c13a
000002c0: 26c5 7d3d d8a4 21bc ca48 3abd 4430 b2bc
000002d0: c818 263d b0f8 adbb 1e07 68bd c0ef e5bb
000002e0: 4052 40bc e86d 093c 1076 7c3c 9c26 05bd
000002f0: ee39 23bd 64b5 603d 5c58 f03c 1629 463d
00000300: 5883 e5bc 8864 213c 229e 56bd 5852 143c
00000310: eae3 01bd a861 fa3c 543d 983c 20b2 11bd
00000320: c054 1d3d 78d4 893c 68f6 c53c 5e8a 42bd
00000330: fe6f 173d 8086 12bd 02a6 50bd 90fb 42bd
00000340: acf4 243d c61f 0cbd 70a1 fcbc f20f 783d
00000350: 28df 18bc 70e8 a53c 70d3 7f3c 30ab 563c
00000360: 0e46 5c3d 7c8a e93c d2dc 0c3d a867 eebc
00000370: d0aa cfbc a0ed 3bbd 28c6 b0bc e00b 05bd
00000380: d839 48bd e4cc 083d f284 3e3d 1214 7d3d
00000390: d80a 54bc b88d 403c 6671 5abd 0409 c13c
000003a0: 8c01 3b3d 7047 55bd b282 713d 2c09 4ebd
000003b0: 384b 813c 5813 8bbc 1edf 43bd 6c50 73bd
000003c0: 80e5 7cba 601a 80bb 1833 88bc b099 913b
000003d0: c039 3e3b e00f ed3b 40b8 2f3c a2a2 63bd
000003e0: 4e2a 7f3d 889a 773d d8b0 69bd d8e1 bd3c
000003f0: 8c0b ec3c f079 61bc 863d 53bd 0070 fbbb
0.04646101 0.007741615 0.029579148 0.014948912 0.022895694 -0.0026346669 0.025533646 -0.015088648
0.0076217577 -0.03231127 -0.012281202 -0.02129943 -0.06235394 -0.056175254 -0.0018706843 -0.016240716
-0.02337639 -0.043400288 0.06021008 -0.047944225 0.02177652 -0.039057747 -0.013920344 -0.0078030005
0.015702352 0.04545916 0.036043376 0.032822557 0.034285508 0.0047023967 0.014997527 0.06000732
0.0061275065 0.00925719 0.04647834 0.04005675 -0.014610283 0.0075723976 -0.04773085 0.036105007
-0.046593383 0.05957289 0.031804092 0.0074254125 0.044851795 0.054889187 0.023271464 0.022530913
-0.026933156 0.009629048 0.034473553 0.055511728 -0.044743396 0.017028518 0.024520315 0.0476621
0.013763078 -0.059397757 0.060356654 -0.029109463 0.023729526 0.03216695 -0.04813797 -0.054300644
-0.04641091 -0.024860106 0.0339273 -0.043247625 0.01117944 -0.0521684 -0.027487785 -0.003237486
0.06161637 -0.050916485 -0.025256366 -0.010477707 0.03201203 -0.0340354 0.042664334 -0.036068477
0.012803011 0.055732727 0.02449277 -0.012294456 -0.015986815 0.056525193 -0.046096437 -0.0073743165
-0.0016940609 -0.039216153 -0.014076695 -0.01867707 -0.036693268 -0.041625097 -0.03442713 0.033490434
-0.046287246 0.0008535683 0.046720095 -0.015498787 -0.029869772 -0.053422324 -0.018254064 0.011362098
0.0027139038 -0.03085792 0.043698937 -0.052641526 -0.041527018 0.057994924 -0.02138418 -0.033603877
-0.05102773 0.055423744 0.0002667457 0.026232235 0.049040593 0.03805756 -0.053076103 0.010838971
0.0077068508 0.007912889 0.025813363 0.018544748 0.027744122 0.012384228 -0.035615355 -0.003003776
0.027515426 0.0009223223 -0.034244172 -0.06162934 -0.045369625 0.009150393 0.03554993 0.004972577
-0.015035503 0.0497562 -0.042853057 -0.0534824 -0.035496928 0.03611639 -0.035018243 0.035643645
0.05638811 -0.02295608 -0.05047308 0.036383696 0.031879485 -0.05418703 0.033195868 -0.04108803
-0.04693196 0.03527724 -0.011138685 -0.0010900646 0.017853908 0.00845287 0.037494145 0.014842689
-0.039371565 -0.046873443 0.0064894333 0.045283392 -0.012169912 0.03807444 -0.008011602 -0.02027075
0.0045455247 -0.025255777 0.033983 -0.03800679 0.060388915 0.019360378 0.044920698 0.0014750883
0.061955594 -0.009865962 -0.045479573 -0.02175153 0.040550977 -0.005309187 -0.056647412 -0.007017106
-0.01173836 0.00838802 0.015409008 -0.032507524 -0.039850168 0.054860488 0.029339008 0.048379026
-0.028016731 0.009850629 -0.0523969 0.009052835 -0.031711496 0.030564144 0.018583931 -0.035570264
0.038410902 0.016824946 0.024165347 -0.04749524 0.03697204 -0.0357728 -0.050939567 -0.04760319
0.0402724 -0.03420999 -0.030838698 0.06056208 -0.009330548 0.020252436 0.0156143755 0.013102338
0.053777747 0.028508417 0.03439028 -0.029102162 -0.025350004 -0.045880914 -0.021578863 -0.032482028
-0.04888329 0.033398524 0.046513505 0.06178672 -0.0129420385 0.011752538 -0.0533308 0.02356387
0.045655772 -0.05207008 0.05896253 -0.050301716 0.015782937 -0.016976997 -0.047820203 -0.05940287
-0.0009647235 -0.003909394 -0.016625926 0.00444337 0.002902612 0.0072345585 0.010725081 -0.05557502
0.062296204 0.060450107 -0.057053417 0.02317898 0.0288141 -0.013761982 -0.051572345 -0.0076732635

2.bias f4 [256]
00000000: feae 423d c063 5a3d 4e01 503d 3e9b 213d
00000010: 9857 8d3c 00eb 4dbb 148b e63c 00e0 5037
00000020: 72e4 793d c435 64bd 20c6 a93b 36a3 16bd
00000030: fe7f 373d 3e6c 56bd c2f8 54bd b8c8 5cbc
00000040: f099 933b 30a6 253d d4b1 dbbc ecf6 063d
00000050: 809b 15ba 74c4 323d 02dc 403d 8cde 76bd
00000060: 387b 21bc c03a 513c 507c 7dbd 6447 f03c
00000070: 3420 7cbd 887e ebbc 74e1 9fbc 4082 abbb
00000080: b28a 5c3d 5e95 493d 8e30 483d eaa9 06bd
00000090: b6ff 5bbd 40d4 cbba 5acc 513d 204f 6dbc
000000a0: aefb 6e3d 18d3 9e3c fa59 283d 5628 463d
000000b0: 88cf 5d3d 9418 1b3d 4e46 06bd 4023 dd3c
000000c0: c035 8f3a f046 153d dc85 22bd b47c 3b3d
000000d0: 94fa 223d 7cde 693d 8eb5 113d ba95 593d
000000e0: 725e 7c3d 20c3 86bc d4d4 e13c 3a06 6abd
000000f0: 2838 32bc 5cea d13c e035 7bbc 3cea dabc
00000100: e4aa fe3c b0c0 b93b e203 3fbd dc73 673d
00000110: 5a00 283d 3ac1 0e3d 4a53 6ebd b886 32bd
00000120: 886d 4ebc 7021 ac3b e426 b23c 54ed b5bc
00000130: 56a5 3a3d 2071 f3bc 885f 353d 0044 5fba
00000140: 20dd 7fbb 00c9 4abb 565e 7ebd 84a7 9ebc
00000150: 52e8 5d3d 2458 92bc 001f 0e3a 6abb 35bd
00000160: aa6f 4cbd d892 73bc 20e2 e63b e404 01bd
00000170: 0407 dd3c 88e2 633d 9c2c 9d3c 3ef4 45bd
00000180: 00ba d3bb 58e5 2d3c 7463 ca3c 40ca 1a3c
00000190: 20a9 20bb 1a9e 6dbd 1017 2dbc 8653 11bd
000001a0: 1481 8e3c 9820 9c3c 3a75 6ebd 0876 20bd
000001b0: 449c babc 78fb f73c 3a19 3c3d f2e1 5e3d
000001c0: 66c5 0f3d ee62 6c3d 888c fcbc c082 8f3c
000001d0: 560a 0e3d 1073 29bc 889e edbc 60ba 43bd
000001e0: f8c6 4dbc f2c2 23bd 40e8 c83c 5005 ed3b
000001f0: aef0 463d 38c6 993c 088c 5abc 6426 16bd
00000200: 0004 8aba e458 0fbd 3ce9 0b3d 7055 c6bc
00000210: 8cd5 f03c c8a0 de3c c48e e93c 0c53 c1bc
00000220: 4427 4cbd bc61 803c a06e f73b fe25 763d
00000230: 36d0 4dbd 7802 1bbd c459 503d 2836 af3c
00000240: 30f7 313c 8cce 49bd 38e4 6a3c 884b 17bc
00000250: 90c7 f5bc fa64 133d 00e5 3e3c 508f 75bc
00000260: c448 303d 7ee6 293d 808f 23bd 0024 7b3b
00000270: 342c 613d 4619 05bd 30ec 1e3c 8ad5 413d
00000280: 6681 593d 281e 413c a2a9 6a3d 08ce 39bc
00000290: 767e 34bd 00ef a9ba 9043 83bc cc7e f4bc
000002a0: 3226 08bd 0423 203d c0dc e2ba 3479 363d
000002b0: 4085 c2bb 987f 5ebd 28f1 40bc 9884 3abc
000002c0: c06b 63bc d04c 20bd e490 ecbc c475 dc3c
000002d0: 00c0 c1ba 5a97 17bd 54a0 28bd 78e5 b83c
000002e0: 5061 a03c 80af 3b3b dcd3 da3c ba7e 4abd
000002f0: ba5f 4a3d 76bc 523d 86e6 7c3d 2477 1d3d
00000300: 48ce 55bd 1cd2 7abd aced be3c 525d 6bbd
00000310: 1471 b23c b028 3bbd d429 22bd de8f 003d
00000320: 4493 f9bc 88de d5bc ccfe dd3c 080e c03c
00000330: 6050 83bb 80a9 fe3a 729e 3dbd 740f 043d
00000340: 7a9d 27bd 568d 2abd 88e6 6abc 8073 413d
00000350: c4cd 0a3d 48a6 fbbc aa57 103d aa5a 503d
00000360: e032 6e3c 589d 0c3c 1cff 1cbd 78e1 c53c
00000370: c0ee 313b c44e 12bd b8e6 393c 2486 793d
00000380: 2c8d ffbc 0097 823a a0d5 db3b c8d0 503c
00000390: ccbf e03c 68eb 78bd e8aa 56bc 6c7e 733d
000003a0: 68e3 4f3c 9c4e 23bd 8469 42bd 10dc ecbc
000003b0: ecf7 95bc 50c5 143d 7831 7f3c 4030 4fbb
000003c0: a848 413c c01e 9a3b 3ef4 263d f0d6 073c
000003d0: 2eb0 65bd d6a5 4bbd 1e8e 10bd ae04 693d
000003e0: 402f 773d fc4d d6bc 4660 24bd d459 94bc
000003f0: e072 ffbb 94ae cc3c 80a9 18ba e89e 16bd
0.047530167 0.053317785 0.050782494 0.03945469 0.017253682 -0.0031420588 0.02814249 1.244992e-05
0.061008878 -0.055715337 0.005181089 -0.036776744 0.044799797 -0.05234932 -0.051995046 -0.013475589
0.0045044348 0.040441692 -0.026818193 0.032950327 -0.000570707 0.043644384 0.047084816 -0.06027083
-0.009856038 0.012770355 -0.06188613 0.029330917 -0.06155415 -0.028746858 -0.019516684 -0.005234033
0.053843208 0.049214713 0.04887443 -0.032876886 -0.05371066 -0.0015550926 0.051220275 -0.014484197
0.05834549 0.019387767 0.041101433 0.04837831 0.054152995 0.037865236 -0.03278189 0.026994348
0.0010926053 0.036444604 -0.03967844 0.045773223 0.03978975 0.057096943 0.035573535 0.053121306
0.061613508 -0.016450465 0.027567305 -0.057134844 -0.0108776465 0.025624447 -0.015332669 -0.02672302
0.031087346 0.005668722 -0.046634562 0.056506976 0.04101596 0.034852244 -0.0581849 -0.04358551
-0.0125993565 0.0052530095 0.02174706 -0.022207893 0.045567833 -0.029717028 0.04428056 -0.00085169077
-0.0039041713 -0.003094256 -0.062101685 -0.019366987 0.054176636 -0.017864294 0.00054214895 -0.044368185
-0.04991118 -0.014866553 0.007045999 -0.031498805 0.026980884 0.05563596 0.01918631 -0.04832863
-0.006461382 0.010613762 0.024705626 0.009447634 -0.002451487 -0.058012106 -0.010564581 -0.035480045
0.017395534 0.01905851 -0.058217265 -0.039175063 -0.022779591 0.030271277 0.045922495 0.054414697
0.035100363 0.057711534 -0.03082873 0.017518401 0.034677826 -0.010342374 -0.029006258 -0.047785163
-0.012559645 -0.039980836 0.024524808 0.0072332993 0.048569374 0.018771276 -0.01333905 -0.036657706
-0.0010529757 -0.034996882 0.034157977 -0.024210662 0.029398702 0.027176276 0.028510459 -0.02359917
-0.049842134 0.015671603 0.0075510293 0.060094826 -0.050247394 -0.03784415 0.050866857 0.021388128
0.010862157 -0.049269244 0.014336638 -0.009234317 -0.030002385 0.03598497 0.011651278 -0.014987782
0.043038145 0.04147958 -0.039931774 0.0038321018 0.054973796 -0.032494806 0.009699866 0.047322787
0.05310192 0.011786975 0.05729068 -0.011340626 -0.044065915 -0.0012964904 -0.016023427 -0.029845618
-0.03323955 0.039095894 -0.001730822 0.044549182 -0.005936295 -0.0543209 -0.011776246 -0.011384152
-0.01388067 -0.039135754 -0.028877683 0.026911624 -0.0014781952 -0.037009574 -0.041168526 0.022570357
0.019577652 0.0028638542 0.02671235 -0.049437262 0.0494077 0.05144926 0.06174328 0.0384437
-0.05219868 -0.061235532 0.02330669 -0.057462044 0.021782435 -0.0456931 -0.03959067 0.031387202
-0.03046573 -0.026107088 0.027099036 0.02344419 -0.004007384 0.0019429177 -0.046293683 0.0322413
-0.040921666 -0.041638695 -0.0143371895 0.04722929 0.03388764 -0.030718938 0.035239853 0.050867714
0.014538497 0.008582436 -0.03832923 0.024155363 0.0027150363 -0.035719648 0.011346512 0.060918942
-0.031195246 0.0009963214 0.0067088157 0.01274509 0.027435206 -0.060771376 -0.013102271 0.059446737
0.012688495 -0.03986989 -0.04746391 -0.028913528 -0.018306695 0.036320984 0.015575759 -0.0031614453
0.011797108 0.0047033727 0.04076027 0.008290991 -0.05607622 -0.0497187 -0.035291784 0.05688923
0.060347795 -0.026160233 -0.040130876 -0.01810924 -0.0077956766 0.02498559 -0.00058235973 -0.03677264

4.weight f4 [35, 256]
00000000: 38a0 943c 105c 0ebd eaa3 013d cc2a 9c3c
00000010: 34d5 c63c 4c02 ae3c bc16 9abc d423 c83c
00000020: 00d6 d2bb daf3 303d b0ff ccbc fcdf 2abd
00000030: 2058 f6bc 1065 efbc 3e67 78bd 0a29 793d
00000040: 02f0 39bd 58ed 933c 3eed 50bd ccd2 3dbd
00000050: ba6c 0f3d 805f 4b3d ce3e 4f3d 1217 003d
00000060: d41f c73c d0a6 4bbd 56db 49bd 7071 213c
00000070: 18f3 303c c0ee 61bb fae0 263d 44b2 9e3c
00000080: 6059 933b a813 fe3c 2a91 4c3d 60ba e83b
00000090: 903a 153c 72ff 1abd b092 24bd a81b 59bd
000000a0: 92a7 3a3d 9c5a d1bc 0020 afbb d626 6dbd
000000b0: 58bf 283c 2c1f 8cbc 6062 d73b b411 c33c
000000c0: 9260 25bd b0ef 6b3d 3c27 f33c a074 83bb
000000d0: ca7b 233d acd2 683d 28de 9c3c 7807 7bbd
000000e0: eccf 843c 92cb 42bd 4c77 a2bc ded9 123d
000000f0: 0cf0 61bd e402 8c3c 885f 583d c490 663d
00000100: a290 34bd 447b 23bd e0dd 48bc 00e4 59bd
00000110: 369a 14bd d045 893b d09d f33b ceb7 01bd
00000120: e0fa 67bc 3464 213d a48c 7cbd 4065 5abb
00000130: 803b c23b 1030 c83b 006a 44b9 0c93 d53c
00000140: c492 a23c 10d5 413c c037 523c 40fe 483d
00000150: 1461 4cbd f015 8e3c 10f2 0c3c 80d2 313c
00000160: 2802 5dbc f273 75bd b059 063c 3892 96bc
00000170: e07e da3b c07d 84bb 4489 8d3c 1c38 3c3d
00000180: 1c2a 0dbd 44bc 37bd 18b5 cfbc 2e8d 083d
00000190: c0af 403b 687b 1cbd 00c6 ac3c 18f0 413c
000001a0: 6633 18bd c493 3c3d 68b3 603d ca48 243d
000001b0: 0820 003c 003b 11bb 8cee 3bbd e0e0 74bb
000001c0: 20f3 56bc e607 45bd 766f 103d aa17 43bd
000001d0: 943f 4bbd 5810 aabc 64c5 003d a00a 333b
000001e0: c05d 5c3d 70fa 333d 045b ffbc 945d c4bc
000001f0: 001d 1e3d 7a93 6b3d 4a0e 1e3d 80d4 9e3a
00000200: 762c 6bbd aca7 81bc ccb7 13bd c049 3ebc
00000210: 702a 903c 2c55 f1bc 8cc8 493d d625 6cbd
00000220: 40f0 97bb c2ff 2f3d c8e8 21bc ae4c 65bd
00000230: 269c 1ebd e083 bcbc 38ef b63c e6b3 1cbd
00000240: 8099 763a 7808 19bd 9090 9d3c f027 bb3c
00000250: 18c2 613d 5078 14bd 3000 6b3c 408a 873a
00000260: 988f efbc 0825 bdbc bef6 3d3d 94e8 8bbc
00000270: d02e f83c e447 c1bc d606 34bd 9084 fa3b
00000280: a0d3 a73c 60f8 04bc 20dc 4a3d 9014 643d
00000290: dc98 b5bc 2c0e 49bd 5816 b2bc 006c 00bd
000002a0: 5c4e 273d 6064 55bb 467a 64bd 3038 d0bb
000002b0: 947f 853c ea43 623d a267 46bd 74d1 a23c
000002c0: b63e 77bd 7073 543c 283c 21bc 5028 9e3b
000002d0: 5c64 a0bc 8080 be3a a276 66bd 00e4 7aba
000002e0: 38b8 1cbd ccf6 433d 5e91 133d 283f a33c
000002f0: 98cc 143d 4cea 90bc c050 b9ba 1af0 5abd
00000300: 980e 123d dc10 4dbd 482d 103d f6f4 223d
00000310: a2fa 42bd d899 1e3d 20b8 14bc bc9d d1bc
00000320: de7b 313d 189a 58bd 0085 d1ba 8075 2e3d
00000330: 7436 943c 00ee 8eba c479 fabc f8e8 8e3c
00000340: 3457 8ebc c8b1 87bc 926b 1d3d 36b6 43bd
00000350: 52cb 72bd 784a d33c d0c1 803c 00e3 a83c
00000360: e869 de3c 8e1d 03bd f281 54bd 4aa9 05bd
00000370: defc 4abd 06f9 42bd 3c50 c0bc d086 0cbc
00000380: 0c99 ca3c d4e2 ffbc c897 7abd d8c6 f23c
00000390: e092 8ebb 2458 80bc 6023 8e3c 10b9 da3b
000003a0: 5a94 3fbd f030 35bd 08d4 29bc 8c3b b5bc
000003b0: 5032 373c ac85 e2bc 00f1 eeb9 00fa 2e39
000003c0: 08d9 273c 80c6 aabb d841 21bc 601d 143c
000003d0: 66e8 363d 7c41 833c 8c5e 89bc bca3 3ebd
000003e0: a038 203c 2c3f 6b3d 0a84 5bbd 168c 39bd
000003f0: 88f0 e3bc 143c 003d 4a27 653d 1862 b83c
0.018142805 -0.034755766 0.03165046 0.019063376 0.024271585 0.02124133 -0.018809669 0.024431147
-0.006434202 0.043201305 -0.025024265 -0.041717514 -0.030071318 -0.029222995 -0.060645334 0.060830154
-0.045394905 0.01805751 -0.0510075 -0.04634361 0.0350158 0.049651623 0.050597005 0.031272
0.024307169 -0.04971963 -0.04928144 0.009853706 0.010800146 -0.0034474581 0.040741898 0.019372113
0.0044967383 0.031015232 0.049943127 0.0071022958 0.009108201 -0.037841268 -0.040178955 -0.05300489
0.045569964 -0.025555901 -0.005344391 -0.057898365 0.010299526 -0.017104708 0.0065730065 0.023812152
-0.0403753 0.05760163 0.029681794 -0.0040117055 0.039912976 0.056841537 0.019148901 -0.06128642
0.016212426 -0.04755742 -0.019832276 0.035852306 -0.055160567 0.017091222 0.05282548 0.056290403
-0.044083245 -0.039912477 -0.01225993 -0.053195953 -0.03627988 0.0041892305 0.007434584 -0.03166943
-0.014158934 0.0394022 -0.061657563 -0.003332451 0.005927503 0.006109245 -0.00018731505 0.026071094
0.019845374 0.011830583 0.012830675 0.049070597 -0.04989727 0.017344445 0.008602634 0.01085341
-0.013489284 -0.059925027 0.008200094 -0.01838027 0.0066679567 -0.004043311 0.017277367 0.045951948
-0.034463987 -0.04485728 -0.025354907 0.033337764 0.002940163 -0.038203627 0.021090508 0.011837028
-0.037158392 0.046039358 0.054858595 0.04010848 0.007820137 -0.002216041 -0.045881793 -0.0037365481
-0.013119489 -0.048103236 0.035262547 -0.04762999 -0.04962118 -0.020759746 0.031438246 0.0027319565
0.053800344 0.043940008 -0.03117133 -0.023970403 0.038601875 0.05751369 0.038587846 0.0012117773
-0.057415448 -0.015827022 -0.036063954 -0.011614263 0.01759836 -0.029459558 0.049263522 -0.05765327
-0.0046367943 0.04296852 -0.0098821595 -0.05598133 -0.038723134 -0.023012102 0.022330865 -0.038257502
0.00094070286 -0.037361592 0.019233972 0.022846192 0.055116743 -0.03624755 0.014343306 0.0010340884
-0.029243276 -0.023088947 0.04637789 -0.017078675 0.03029576 -0.02359385 -0.04395183 0.007645197
0.020486653 -0.008115858 0.049526334 0.055683672 -0.022167616 -0.04908578 -0.02173917 -0.031352997
0.040846214 -0.003256105 -0.05578067 -0.0063543543 0.016296186 0.05524055 -0.048438676 0.019875266
-0.06036254 0.012966976 -0.0098410025 0.004826583 -0.019579105 0.0014534146 -0.05626548 -0.0009570718
-0.038261622 0.047842786 0.036027305 0.019927576 0.03632793 -0.017689846 -0.0014138445 -0.053451635
0.03565845 -0.050064906 0.035199434 0.039784394 -0.047602303 0.038720936 -0.009077102 -0.025587909
0.04333102 -0.05288133 -0.0015985072 0.042592525 0.018092372 -0.001090467 -0.03057564 0.017445073
-0.017375566 -0.016564265 0.038432665 -0.04778119 -0.059275933 0.025792345 0.015717417 0.020616055
0.02715011 -0.032010607 -0.051881738 -0.03263215 -0.04955756 -0.04760077 -0.023475759 -0.008577064
0.024731182 -0.03123609 -0.061179906 0.029635832 -0.004351005 -0.015667029 0.017350852 0.006674893
-0.04677234 -0.044236124 -0.010365494 -0.02212312 0.011181429 -0.02765163 -0.00045574456 0.00016687065
0.010244615 -0.0052116513 -0.0098423585 0.009040207 0.044655226 0.016022436 -0.016768716 -0.046542868
0.009779125 0.057433292 -0.05359272 -0.045299612 -0.027824655 0.031307295 0.055945672 0.022507712

4.bias f4 [35]
00000000: 7cb0 6dbd 50ed 0c3c 7652 263d 0062 6439
00000010: 5806 97bc 7002 bb3b 00a3 f2bb accf e83c
00000020: 3c6a 12bd 18ea 17bc 60c4 d1bc e8d2 cfbc
00000030: 5ccf 863c 4892 26bd deb8 10bd a8d5 133c
00000040: 5cb1 22bd 2e1a 193d 94ee 3dbd c075 62bd
00000050: 1c64 8a3c d021 b1bc d2b0 66bd 8ea0 573d
00000060: 306a 2c3c 0080 4e3c 12b6 29bd 72d2 35bd
00000070: f855 3f3d 3ab7 52bd 006a 17ba f839 6bbc
00000080: 30a3 25bc 787f 6d3d f87a 613c
-0.058029637 0.008601502 0.040605985 0.00021780282 -0.018435642 0.0057070777 -0.007404685 0.028419338
-0.035745844 -0.009272121 -0.025606334 -0.025369123 0.016456299 -0.04066685 -0.035332553 0.009023108
-0.039719924 0.037378483 -0.046370104 -0.055288076 0.016893439 -0.021622568 -0.056320973 0.05264335
0.010523364 0.01260376 -0.0414334 -0.04439015 0.046712846 -0.05144427 -0.0005775988 -0.014357083
-0.010109708 0.05798289 0.013762228
