hyperparam/hogefieldAlfa_2hypchang2timeslr__20241126_082710/snn_model_default.pth (torch, 323068 bytes, 6 tensors)

0.weight f4 [256, 16]
0.23751915 -0.192532 0.06985456 0.15864241 0.19857016 0.03290376 0.247529 -0.19850689
-0.010076046 0.2132748 -0.112323076 -0.005851239 0.0864369 0.06752801 -0.06318736 -0.22291869
-0.073266834 -0.1647642 0.036123335 -0.12075782 -0.20515788 -0.014519274 -0.108857274 -0.17985228
-0.100271404 0.20553875 0.21829647 -0.13539279 0.22024164 -0.09709212 -0.11783829 -0.01944074
0.015769124 0.121996164 -0.034261912 -0.15177375 -0.18762136 -0.16884825 0.1724402 0.12023607
-0.2086721 0.042079628 -0.061484993 -0.23322427 0.23057124 -0.214932 -0.08812538 0.11783442
0.024969846 0.015038371 0.2394754 0.04463157 -0.12889767 0.19025156 0.11628172 -0.02452442
0.06658682 -0.18545172 -0.19294536 -0.17100272 0.074097335 -0.20434865 0.15412006 0.023020744
0.15364647 -0.1486165 -0.117803305 0.18242025 -0.06802654 0.04180163 0.093250155 0.07440624
0.08841643 0.13588732 0.24156588 0.123043954 -0.11509016 -0.20959392 0.2284826 0.17640534
0.16209826 0.14862084 0.2017079 0.2390087 0.1156705 -0.16471422 -0.19009686 -0.09817392
0.15008157 0.2072837 -0.12631616 -0.16673186 0.19052503 0.024723232 0.08070934 0.2037667
0.022092104 -0.02283594 0.009308606 0.17461044 -0.21661183 0.13342434 -0.055451155 -0.14228049
-0.06460771 0.05346039 -0.15111282 -0.18180585 -0.16763678 0.08160883 0.20129395 0.17958441
0.10247025 0.0010204613 -0.19135171 0.11793065 -0.16992384 -0.08599377 0.22423846 -0.032196045
0.067215234 -0.15255314 0.13323376 0.035333037 0.041745573 -0.22631049 0.09681377 0.04891202
0.23816094 0.04078895 0.1755904 0.062363982 0.13186252 -0.24133724 0.09363067 -0.17919964
-0.012755185 -0.08363432 -0.04988739 0.04066342 -0.08166167 0.19622618 0.07065764 0.013448596
0.17669496 0.0144560635 0.12906232 -0.19552758 0.22324017 -0.08925241 -0.082224816 -0.1440899
-0.12481144 0.006215781 -0.00959909 -0.06314266 0.053875357 -0.08071604 0.090557754 -0.05690524
-0.21539494 -0.20187452 0.20422012 0.048173785 -0.17075726 0.050354153 -0.1271236 -0.030731618
0.074846536 -0.07430959 0.14948359 0.12522188 -0.039464623 0.12099144 0.22133914 -0.24754494
0.0060375333 0.033704877 -0.1422964 -0.120292336 0.034103543 0.022898167 -0.1215367 0.1559203
0.010222673 -0.053117663 -0.14120167 0.06866947 -0.11332992 -0.072553754 0.089187235 -0.1735405
-0.050098836 -0.094267696 0.16355446 0.12123382 0.18044949 -0.2039029 -0.0017511845 0.15989047
-0.20362362 0.24266768 -0.23774469 0.20589453 -0.10297471 -0.08047396 0.17921525 0.21405491
-0.107290655 0.18151069 -0.21603632 -0.024460286 0.22343257 0.063510686 -0.11231676 0.14320612
0.054888606 -0.022865564 -0.09529373 0.22240692 -0.115204334 -0.01480785 0.11553228 0.21574178
-0.12238264 -0.17280447 -0.09771618 0.19917193 -0.15609223 0.17247629 0.031090051 -0.15644574
-0.21224141 0.055378526 -0.14304113 -0.20087531 0.012348384 -0.19240224 -0.16401276 0.12537062
-0.087082505 -0.11050594 0.08803794 -0.1347785 -0.06285751 0.12178734 -0.1790621 0.0017150939
-0.20811972 0.0084759295 0.17438334 0.023729086 0.106003284 -0.130775 0.20124575 -0.1262914
00000000: 3838 733e 1c27 45be e80f 8f3d 2873 223e
00000010: fa55 4b3e 18c6 063d 3e78 7d3e 6445 4bbe
00000020: 0016 25bc b664 5a3e a409 e6bd c0bb bfbb
00000030: d405 b13d 204c 8a3d 6068 81bd cc44 64be
00000040: ec0c 96bd f2b7 28be 10f6 133d e04f f7bd
00000050: e814 52be 40e2 6dbc 90f0 debd 322b 38be
00000060: 185b cdbd c078 523e 1c89 5f3e 68a4 0abe
00000070: 0687 613e 3cd8 c6bd 3455 f1bd 3042 9fbc
00000080: 402e 813c 20d9 f93d 3856 0cbd 946a 1bbe
00000090: d01f 40be 8ee6 2cbe 2a94 303e 543e f63d
000000a0: 24ae 55be b05b 2c3d b0d7 7bbd 58d2 6ebe
000000b0: de1a 6c3e 2217 5cbe 147b b4bd 2c53 f13d
000000c0: 908d cc3c 8063 763c 0a39 753e 98cf 363d
000000d0: c0fd 03be 4ed1 423e 1c25 ee3d 70e7 c8bc
000000e0: ac5e 883d 0ee7 3dbe 7893 45be 561b 2fbe
000000f0: 58c0 973d c640 51be a6d1 1d3e 0096 bc3c
00000100: 8055 1d3e ec2e 18be dc42 f1bd 60cc 3a3e
00000110: 8051 8bbd 3038 2b3d f0f9 be3d 4c62 983d
00000120: ac13 b53d 0c26 0b3e 0c5d 773e 78fe fb3d
00000130: 64b4 ebbd ca9f 56be 58f7 693e 9aa3 343e
00000140: 16fd 253e 1030 183e 848c 4e3e b2be 743e
00000150: a8e4 ec3d d8aa 28be c0a8 42be 680f c9bd
00000160: fcae 193e 2e42 543e 0659 01be c2bb 2abe
00000170: fe18 433e 6088 ca3c f04a a53d 38a8 503e
00000180: 80fa b43c 7012 bbbc 2083 183c 14cd 323e
00000190: 7ecf 5dbe 64a0 083e c020 63bd fab1 11be
000001a0: 0c51 84bd 48f9 5a3d 52bd 1abe 502b 3abe
000001b0: faa8 2bbe 8822 a73d 0020 4e3e fae4 373e
000001c0: ecdb d13d 00c1 853a b4f1 43be a085 f13d
000001d0: 8400 2ebe 801d b0bd c49e 653e 00e0 03bd
000001e0: 24a8 893d e436 1cbe 6e6e 083e 60b9 103d
000001f0: 68fd 2a3d f0bd 67be 4c46 c63d f857 483d
00000200: 76e0 733e 5012 273d f8cd 333e 6071 7f3d
00000210: f806 073e 1c21 77be 70c1 bf3d 1c80 37be
00000220: 20fb 50bc 7848 abbd b856 4cbd b08e 263d
00000230: 3c3e a7bd 84ef 483e f4b4 903d 8057 5c3c
00000240: 86ef 343e 20d9 6c3c ea28 043e 6238 48be
00000250: 1299 643e f8c9 b6bd 7c65 a8bd 4e8c 13be
00000260: 249d ffbd c0ad cb3b 8045 1dbc f050 81bd
00000270: 68ac 5c3d 744e a5bd 5876 b93d 7815 69bd
00000280: 7e90 5cbe 32b8 4ebe 141f 513e e051 453d
00000290: feda 2ebe 2840 4e3d b02c 02be e0c0 fbbc
000002a0: 2449 993d a02f 98bd 3a12 193e 2a3a 003e
000002b0: a8a5 21bd 5cca f73d baa6 623e 6c7c 7dbe
000002c0: 80d6 c53b 200e 0a3d 26b6 11be d45b f6bd
000002d0: 28b0 0b3d f094 bb3c 3ce8 f8bd 92a9 1f3e
000002e0: 007d 273c e891 59bd 2c97 10be 94a2 8c3d
000002f0: 8419 e8bd 1097 94bd cca7 b63d 9ab4 31be
00000300: 7034 4dbd 6c0f c1bd d27a 273e 7049 f83d
00000310: c0c7 383e eccb 50be 0088 e5ba 54ba 233e
00000320: b682 50be e07d 783e 5873 73be 04d6 523e
00000330: 68e4 d2bd 88cf a4bd 3484 373e 3631 5b3e
00000340: 34bb dbbd f0dd 393e a038 5dbe f060 c8bc
00000350: 82cb 643e e411 823d 5406 e6bd a0a4 123e
00000360: e0d2 603d 9050 bbbc 5c29 c3bd a4be 633e
00000370: 40f0 ebbd a09c 72bc 309c ec3d 6aeb 5c3e
00000380: c0a3 fabd a8f3 30be 6c1f c8bd baf3 4b3e
00000390: a4d6 1fbe a09d 303e 90b0 fe3c 5033 20be
000003a0: d055 59be 98d4 623d 6079 12be 42b2 4dbe
000003b0: e050 4a3c 1805 45be f6f2 27be 2861 003e
000003c0: 5058 b2bd f050 e2bd 3c4d b43d 6003 0abe
000003d0: 70bb 80bd a46b f93d 0e5c 37be 00cd e03a
000003e0: 561d 55be a0de 0a3c 8c91 323e 8063 c23c
000003f0: 4018 d93d e2e9 05be 5e13 4e3e 8852 01be

0.bias f4 [256]
-0.06497365 0.20676282 -0.19825247 0.043189585 0.17645207 -0.15381917 0.005036086 0.0034945905
0.18043172 -0.17988661 -0.09844786 0.015437722 -0.11968076 -0.009391278 -0.09687507 0.21566957
-0.0007496178 -0.04516992 -0.13777685 -0.028548032 -0.12430757 0.003343165 -0.11880407 0.113467366
-0.212576 0.12820658 0.07136485 0.06121102 0.18719053 0.22070077 -0.13791308 -0.11857778
-0.17798284 0.13711625 -0.17593804 -0.05011463 0.13308135 0.14745963 -0.087144345 -0.10595229
-0.14030531 0.061941445 0.18140647 0.2060569 0.17501223 0.24335527 0.1072914 -0.14467445
0.2048673 -0.19875008 -0.2044056 -0.039553136 0.17266437 -0.20540816 -0.06796256 0.14597815
-0.14759538 -0.07583386 0.05887738 -0.15766156 0.03178349 -0.24171534 -0.09823549 0.057431072
0.1978139 0.18136033 0.09213364 0.10592151 -0.09788671 0.24086604 0.22749805 -0.027287304
0.06433579 0.24501756 -0.16239709 -0.08960363 -0.04273206 -0.09880006 0.028800786 -0.20369038
0.16041669 0.057180256 0.14513838 0.16301182 0.029512525 -0.112204224 0.0881252 0.11181727
-0.018324077 -0.08891836 0.15103155 0.16444662 -0.22130176 0.22608158 0.13729772 0.18074557
0.11048818 0.16888523 0.11791107 0.10263538 -0.14425865 0.15384066 0.049506247 -0.04331383
-0.19441211 -0.22907004 -0.18759775 0.06949222 0.0044060946 0.22964591 -0.22605458 0.181303
0.044680744 0.09695056 -0.06685999 -0.046198428 0.16218802 -0.039344966 0.104617745 0.22175846
-0.1484144 -0.12818927 -0.17036721 0.061698556 0.22312427 -0.03979811 0.14151326 -0.15949056
-0.09274146 -0.025131136 -0.2403396 -0.048077494 -0.021087617 -0.0423685 0.18827009 0.19819069
0.19505438 0.10033873 -0.13841245 -0.21559805 -0.12961975 0.17598459 0.17747146 -0.23855025
-0.13711399 -0.050360054 0.2195363 0.18153852 -0.19991964 -0.17751834 0.11516014 -0.07909018
0.1559571 0.22414696 0.17693096 0.014553875 -0.17277014 -0.2464054 0.1617794 0.057418644
-0.12264788 0.0002092421 -0.23523203 -0.17315674 0.24328914 0.12643278 0.09668189 0.035605818
-0.19788769 0.11945096 0.18788722 0.24193719 0.21258512 0.12861857 -0.062496066 -0.24033865
0.16378433 0.210186 0.16639125 0.07251373 -0.24193355 0.22000957 0.22521105 -0.025978565
-0.051927894 -0.07882652 0.06226191 -0.16261572 -0.21032152 -0.03298986 -0.21993741 -0.2377381
0.14176777 0.19172236 0.03448978 -0.19227383 -0.08911964 0.030746073 -0.20659667 -0.0021725595
0.18123901 0.10379031 -0.22427481 0.13861856 0.1149669 -0.11296773 0.18438736 -0.109784395
0.2087461 -0.036180437 -0.07005662 0.14556116 0.10262638 0.23042849 -0.050039917 0.11971423
-0.041473866 -0.04342687 0.19114774 -0.14763024 0.23202473 -0.014701456 0.030727386 0.05696684
-0.1724624 -0.19084615 0.22873315 -0.0023008287 0.14728114 -0.13059613 -0.005911082 0.21219549
-0.075730234 0.0048543215 0.004891962 -0.047744304 -0.026417226 0.051835567 0.16341308 -0.2115472
0.14292869 0.18282267 0.008507192 -0.1385082 -0.0782755 0.094200134 -0.24132901 -0.09431344
-0.242161 0.05775678 0.1317532 0.16546759 -0.22628987 -0.13232046 -0.20394406 0.13413286
00000000: e810 85bd a2b9 533e b202 4bbe 90e7 303d
00000010: daaf 343e c682 1dbe c005 a53b 8005 653b
00000020: 18c3 383e 3234 38be 089f c9bd 80ee 7c3c
00000030: 301b f5bd e0dd 19bc 7066 c6bd 7cd8 5c3e
00000040: 0082 44ba 1804 39bd 6015 0dbe 90dd e9bc
00000050: f894 febd 0019 5b3b 8c4f f3bd 9461 e83d
00000060: 86ad 59be 9648 033e bc27 923d 68b8 7a3d
00000070: e0ae 3f3e 62ff 613e 1639 0dbe e8d8 f2bd
00000080: 2241 36be 3468 0c3e 1a29 34be 0045 4dbd
00000090: 7a46 083e a8ff 163e bc78 b2bd 84fd d8bd
000000a0: 32ac 0fbe 50b6 7d3d 9ec2 393e 9400 533e
000000b0: 6836 333e 2032 793e 98bb db3d 8a25 14be
000000c0: bcc8 513e 2485 4bbe b44f 51be 7802 22bd
000000d0: eece 303e 8456 52be f42f 8bbd 4c7b 153e
000000e0: 3e23 17be c84e 9bbd 6829 713d 0872 21be
000000f0: 682f 023d 3a84 77be b02f c9bd d83c 6b3d
00000100: ba8f 4a3e 86b6 393e 90b0 bc3d 60ed d83d
00000110: d478 c8bd 96a5 763e 40f5 683e a089 dfbc
00000120: 7cc2 833d e2e5 7a3e 6c4b 26be 1c82 b7bd
00000130: d007 2fbd b057 cabd a0ef eb3c 3694 50be
00000140: 4644 243e d835 6a3d 289f 143e 92ec 263e
00000150: 40c4 f13c 54cb e5bd fc7a b43d 7400 e53d
00000160: 601c 96bc d41a b6bd 04a8 1a3e b264 283e
00000170: ee9c 62be ee81 673e c697 0c3e 5e15 393e
00000180: a047 e23d 40f0 2c3e 5c7b f13d 8032 d23d
00000190: 8ab8 13be 6888 1d3e 10c7 4a3d d869 31bd
000001a0: f813 47be 5691 6abe a019 40be f051 8e3d
000001b0: 0061 903b 4c28 6b3e da7a 67be 7ea7 393e
000001c0: 2803 373d 048e c63d e4ed 88bd 903a 3dbd
000001d0: 9e14 263e 3028 21bd d441 d63d a614 633e
000001e0: f2f9 17be 0c44 03be be74 2ebe a0b7 7c3d
000001f0: b07a 643e 5803 23bd dae8 103e 7e51 23be
00000200: 3cef bdbd d0df cdbc 961b 76be e8ec 44bd
00000210: f0bf acbc 988a 2dbd e0c9 403e 80f2 4a3e
00000220: 56bc 473e 647e cd3d febb 0dbe bcc5 5cbe
00000230: 0abb 04be 4e35 343e 14bb 353e 8446 74be
00000240: 9c67 0cbe 5846 4ebd 20ce 603e 3ce5 393e
00000250: bcb7 4cbe 5ec7 35be 14d9 eb3d 08fa a1bd
00000260: 38b3 1f3e c886 653e 642d 353e 6073 6e3c
00000270: a8ea 30be b251 7cbe 80a9 253e d02f 6b3d
00000280: d02e fbbd 0068 5b39 aae0 70be 0050 31be
00000290: ca20 793e 9877 013e 2801 c63d 68d7 113d
000002a0: 12a3 4abe b4a2 f43d 8265 403e 62be 773e
000002b0: eaaf 593e 96b4 033e e0fb 7fbd 561b 76be
000002c0: 14b7 273e 003b 573e 7862 2a3e 1482 943d
000002d0: 6ebd 77be 304a 613e ba9d 663e 00d1 d4bc
000002e0: 58b2 54bd cc6f a1bd 5806 7f3d bc84 26be
000002f0: 865e 57be 6020 07bd 4637 61be 9e71 73be
00000300: 922b 113e de52 443e 2845 0d3d 6ee3 44be
00000310: 5c84 b6bd 30df fb3c 148e 53be 8061 0ebb
00000320: b896 393e 0490 d43d 4ca8 65be 06f2 0d3e
00000330: c473 eb3d a05b e7bd 0ad0 3c3e a4d6 e0bd
00000340: 8ac1 553e f031 14bd d879 8fbd fc0d 153e
00000350: c82d d23d 72f5 6b3e a8f6 4cbd bc2c f53d
00000360: 80e0 29bd 60e0 31bd 3cbc 433e 622c 17be
00000370: e497 6d3e 60de 70bc 00b8 fb3c 1056 693d
00000380: fc99 30be 2c6d 43be 0639 6a3e 80c9 16bb
00000390: ded0 163e feba 05be c0b1 c1bb c649 593e
000003a0: 7418 9bbd 0011 9f3b c04c a03b 888f 43bd
000003b0: f068 d8bc 8851 543d c255 273e d49f 58be
000003c0: e65b 123e de35 3b3e c061 0b3c 18d5 0dbe
000003d0: e84e a0bd 00ec c03d f41e 77be 6827 c1bd
000003e0: 0ef9 77be 6092 6c3d 50ea 063e 5670 293e
000003f0: 88b8 67be 047f 07be b6d6 50be 205a 093e

2.weight f4 [256, 256]
0.06057345 -0.03990882 -0.047488958 -0.029164307 -0.015802361 0.01507327 -0.060112692 0.031657472
-0.03730028 0.039367035 0.0065618977 -0.03220269 -0.030087978 -0.03320975 -0.010755643 0.006337054
0.024099618 -0.048473008 0.0011763126 -0.00462614 -0.009065859 -0.05094756 -0.044448048 0.04885599
-0.009528585 -0.04938446 -0.04764002 -0.00393565 0.061711185 0.031458154 -0.045737 0.022818118
-0.0416283 -0.057016492 -0.019718267 -0.05763822 0.015043408 0.023709439 -0.029645778 -0.0043167174
-0.050686456 0.027088307 -0.034791507 -0.031313755 0.057628863 0.017409697 0.038361207 -0.026883297
-0.021751694 0.02812136 0.038089037 -0.055885896 -0.022429653 0.062039062 0.052132525 0.030866548
0.002368182 -0.0066965297 -0.031550817 -0.012695566 0.0571685 -0.0030121207 -0.05517958 0.033133596
0.058151767 0.054405093 -0.014245927 -0.042200707 -0.052446567 0.0138157755 0.018903047 -0.05870393
-0.052406922 0.053338237 0.03084287 -0.008899502 0.031349726 0.041408643 0.022548914 0.038560294
0.053963654 -0.059699133 0.057037905 0.00018882751 0.0052199364 0.024007842 -0.062080175 -0.006766245
0.006291561 0.0045584366 -0.053627238 0.055606052 0.0536436 0.019373856 0.032795705 -0.0136231035
0.010990605 0.037934743 0.049478985 -0.019097276 0.056459367 -0.011258908 -0.0025732517 0.055135883
-0.058393933 -0.026074253 -0.017535329 0.03671465 -0.00850711 -0.01709292 0.000813663 0.04344798
-0.05768375 0.033982173 0.04714798 -0.051406987 0.028691627 0.031349614 0.036130354 -0.062239356
-0.020404354 -0.009981252 -0.020334646 -0.021046259 -0.005437553 -0.0074744225 -0.044091582 0.014238916
-0.016324721 0.017272152 -0.04271821 0.018010937 -0.054276004 0.0042570606 0.014624663 0.048817597
0.0055851787 -0.03866808 0.008000448 0.0039932057 0.00815285 -0.0490873 -0.0057592466 0.055479817
0.007162176 0.061572 0.051994644 -0.035656475 -0.031795457 -0.04750354 0.057167515 -0.033047453
-0.062371492 -0.017335653 0.017808586 -0.055621147 -0.021912493 0.054755107 0.04118073 -0.028646432
-0.023362719 -0.02703917 -0.011264615 0.022468202 0.005107045 0.059797637 -0.022526078 -0.016956538
-0.022272825 0.021478042 0.0048275813 0.021138698 -0.027802221 0.018246718 0.059563994 0.055517092
0.06234497 -0.03393157 -0.014740847 0.04335247 0.026812524 0.03606554 -0.05161687 -0.032151483
-0.046109445 0.019954793 -0.058228098 -0.032269932 -0.013427697 -0.031303674 0.018982947 0.041581377
0.023367658 0.043135658 0.022736728 -0.027052075 0.038971342 -0.053108916 0.041359194 -0.029471986
0.05846408 -0.00057940185 0.0388055 -0.009009533 0.004092112 0.031631127 0.023619711 0.048250265
0.023871072 0.014418349 -0.0055550635 -0.0034236163 0.02604115 0.040245496 0.018883571 -0.04732886
0.026792154 0.04672753 -0.04332222 -0.03063982 -0.056435317 -0.023892373 -0.053809963 0.053147756
-0.044308223 -0.02612228 0.030879356 -0.014028043 0.043060936 -0.024394006 -0.023925275 0.007902108
-0.0062912926 0.05865126 -0.010386981 -0.05680857 -0.023989394 0.049998954 -0.0110019 -0.029652901
-0.024655417 -0.061464064 -0.022101037 -0.019549042 0.0053337365 7.0147216e-05 0.046698727 0.00777182
-0.005709745 -0.040714927 0.004713282 -0.0192409 -0.035499483 0.02255442 0.004547 -0.048547946
00000000: de1b 783d 6e77 23bd c883 42bd fce9 eebc
00000010: f473 81bc e0f5 763c ba38 76bd 44ab 013d
00000020: 2ec8 18bd 543f 213d 3005 d73b f8e6 03bd
00000030: 107b f6bc f206 08bd 7038 30bc 10a7 cf3b
00000040: 906c c53c a28b 46bd 802e 9a3a e096 97bb
00000050: f888 14bc 64ae 50bd 280f 36bd 381d 483d
00000060: c81d 1cbc 5c47 4abd 2e22 43bd a0f6 80bb
00000070: dec4 7c3d 44da 003d b856 3bbd 10ed ba3c
00000080: 7082 2abd 208a 69bd 3488 a1bc 0e16 6cbd
00000090: a078 763c 4c3a c23c b4db f2bc 4073 8dbb
000000a0: 9a9c 4fbd 4ce8 dd3c 8a81 0ebd da42 00bd
000000b0: 3e0c 6c3d c89e 8e3c a420 1d3d 5c3a dcbc
000000c0: 9c30 b2bc c45e e63c 4003 1c3d 9ce8 64bd
000000d0: 64be b7bc ac1c 7e3d ea88 553d d8db fc3c
000000e0: 8033 1b3b 906e dbbb 6e3b 01bd 1001 50bc
000000f0: 8429 6a3d 0067 45bb fc03 62bd 18b7 073d
00000100: 8c30 6e3d e0d7 5e3d c067 69bc a6da 2cbd
00000110: 36d2 56bd 905b 623c 90da 9a3c 8873 70bd
00000120: a4a8 56bd 3279 5a3d 30aa fc3c 38cf 11bc
00000130: 9268 003d 1c9c 293d 80b8 b83c 66f1 1d3d
00000140: fe08 5d3d 1487 74bd 94a0 693d 0000 4639
00000150: 000c ab3b 18ac c43c c847 7ebd 60b7 ddbb
00000160: 7029 ce3b f05e 953b 3ca8 5bbd 2cc3 633d
00000170: 64b9 5b3d ecb5 9e3c ca54 063d 7033 5fbc
00000180: f011 343c 7661 1b3d 7aaa 4a3d e471 9cbc
00000190: f041 673d 4877 38bc 00a4 28bb 2ad6 613d
000001a0: 7a2e 6fbd ac99 d5bc 40a6 8fbc 1a62 163d
000001b0: 6861 0bbc 7406 8cbc 004c 553a 82f6 313d
000001c0: cc45 6cbd e430 0b3d 3e1e 413d 2290 52bd
000001d0: b40a eb3c 7468 003d 6cfd 133d b2ee 7ebd
000001e0: 0827 a7bc 6888 23bc d894 a6bc 3469 acbc
000001f0: 802d b2bb 00ec f4bb 6099 34bd 584a 693c
00000200: 6cbb 85bc 547e 8d3c 4af9 2ebd ac8b 933c
00000210: 8450 5ebd d07e 8b3b 489c 6f3c f6f4 473d
00000220: e003 b73b 6c62 1ebd 5014 033c 70d9 823b
00000230: 8893 053c c40f 49bd 10b8 bcbb ce3e 633d
00000240: b0b0 ea3b ec32 7c3d 56f8 543d 860c 12bd
00000250: f43b 02bd 1293 42bd 7c28 6a3d c45c 07bd
00000260: 4079 7fbd 8003 8ebc 50e3 913c 00d3 63bd
00000270: d481 b3bc e446 603d 20ad 283d ecab eabc
00000280: 2c63 bfbc 4081 ddbc 388f 38bc 3c0f b83c
00000290: 0059 a73b 5eee 743d 9c88 b8bc 70e8 8abc
000002a0: 8075 b6bc b8f2 af3c b030 9e3b 102b ad3c
000002b0: 7cc1 e3bc 247a 953c 60f9 733d e465 633d
000002c0: 705d 7f3d d4fb 0abd 9883 71bc 5c92 313d
000002d0: f0a5 db3c 76b9 133d 366c 53bd 46b1 03bd
000002e0: 42dd 3cbd 3c78 a33c 9680 6ebd 7a2d 04bd
000002f0: d8ff 5bbc 4838 00bd 2082 9b3c 3c51 2a3d
00000300: 886d bf3c 04af 303d 6042 ba3c 509c ddbc
00000310: 6aa0 1f3d bc88 59bd 4268 293d 3c6f f1bc
00000320: 0878 6f3d 00e3 17ba 84f2 1e3d b89c 13bc
00000330: 2017 863b a48f 013d 207e c13c 12a2 453d
00000340: 448d c33c f03a 6c3c 4007 b6bb c05e 60bb
00000350: 4054 d53c 76d8 243d b8b1 9a3c e8db 41bd
00000360: 387b db3c 5e65 3f3d a472 31bd 5c00 fbbc
00000370: b828 67bd f0b9 c3bc d667 5cbd 76b1 593d
00000380: 8a7c 35bd 64fe d5bc b4f6 fc3c e0d5 65bc
00000390: aa60 303d f0d5 c7bc f0fe c3bc d877 013c
000003a0: 3027 cebb 4e3c 703d 282e 2abc 1ab0 68bd
000003b0: 6885 c4bc b4cb 4c3d 5041 34bc a4ea f2bc
000003c0: 28fa c9bc bec1 7bbd 3c0d b5bc 5025 a0bc
000003d0: a0c6 ae3b 001c 9338 2a47 3f3d c0aa fe3b
000003e0: d018 bbbb b2c4 26bd e071 9a3b 189f 9dbc
000003f0: e867 11bd 0cc4 b83c 00ff 943b 36da 46bd

2.bias f4 [256]
-0.030361287 -0.023428075 0.026583336 0.022411324 0.05422695 0.05682279 0.039269738 0.025340214
-0.03766679 0.05372753 0.017195933 -0.060978323 -0.06013406 -0.025067203 -0.020404272 0.051990658
0.04177971 -0.03768556 0.0010091364 0.036087282 -0.029160954 -0.061940968 -0.03804583 0.054630116
0.01577413 0.034428142 -0.0129713565 0.03956127 0.008820213 -0.050493643 0.006319903 -0.038563214
0.04761965 0.054842748 0.04070863 0.01642812 0.0049196184 -0.041691378 0.056298085 0.05922263
-0.009435751 -0.007058084 -0.036996312 0.032674164 -0.044481955 -0.00844799 0.030781493 0.02400826
-0.051825427 -0.0249286 0.0124066025 -0.016361624 0.008311823 -0.023665786 -0.0042719394 0.0001481995
0.030426897 -0.037641622 -0.054483756 -0.019901752 0.0050623193 -0.02295959 -0.041278258 -0.05738595
0.039703473 -0.0020514876 0.041028015 0.044753216 0.006399788 -0.035967164 -0.0624912 -0.04114557
-0.019776613 0.012195587 0.057272747 0.055335075 -0.005763322 0.045598537 -0.032004148 0.019567795
-0.008000687 -0.060965918 0.021896288 -0.043352015 -0.018913828 0.022816129 -0.004889883 0.019203633
-0.02003324 0.05222272 0.0040974393 -0.046680056 -0.054477833 0.048111275 0.008562319 0.024776533
-0.038826577 -0.028144956 -0.022146232 0.042792447 -0.05431512 0.0620422 0.0425476 0.051531613
-0.018936425 -0.04143756 0.06199705 -0.055646643 0.018081203 -0.056960344 0.008015126 -0.041177362
-0.045224942 -0.006289549 0.031908564 -0.018118031 -0.002868548 0.061720483 -0.041555554 -0.050041914
-0.016180016 0.011077844 0.035999484 -0.02246084 -0.015650988 -0.015787236 0.048156813 -0.029163316
0.022193745 -0.0140917 0.053710356 -0.0037920102 0.022966668 -0.033859067 -0.058969542 -0.0052481443
-0.00075342506 0.06221407 0.007859506 0.0523851 -0.05375442 -0.05260185 -0.026024826 -0.019628547
-0.029154375 -0.0334863 0.052446723 0.0053715333 -0.028358504 -0.025614358 -0.05170367 -0.020421758
0.03026867 -0.024515137 0.043277904 -0.008886896 0.024633363 0.03907305 0.033384524 0.0555539
-0.009125292 -0.021673106 -0.043400906 -0.057422668 0.020981945 0.05013469 -0.04179105 0.0114995465
-0.043595128 -0.041183285 0.027984142 -0.061943695 -0.044601887 0.05564738 0.04944919 -0.044579133
-0.031377718 -0.04530909 -0.017669797 0.018663578 -0.004523158 -0.006405726 -0.030272089 0.02254811
0.0084363 -0.015295818 -0.011519976 0.009344891 0.05274141 -0.02866663 -0.021733142 -0.055717796
0.04707084 -0.04919707 0.0236362 -0.021814294 -0.030609816 -0.060460746 0.044334173 -0.035993442
-0.043769278 -0.057528332 -0.044706263 -0.05146008 -0.01776588 0.062002175 0.015456192 -0.032331705
0.019420348 0.038623273 -0.051926263 -0.031675644 -0.04887969 0.042467043 0.000505507 0.06010375
4.015863e-06 0.0014761463 0.0075879768 0.060786903 -0.031475708 -0.026888937 -0.048731953 0.0177489
-0.057759345 0.06054461 -0.008019894 -0.044815265 0.046628483 0.012626916 -0.03570243 0.005437307
-0.005541131 -0.041532233 -0.031177655 0.04167071 0.037005976 -0.06137465 -0.012449138 0.061315186
-0.02117221 0.027076624 -0.046130784 -0.0024759322 -0.044452175 0.051444165 0.027303234 -0.023697011
0.029651731 -0.0026867688 -0.036432087 0.018270344 0.017852344 -0.010193482 0.028858095 0.052000955
00000000: 3cb8 f8bc 3cec bfbc 4cc5 d93c f497 b73c
00000010: 141d 5e3d 04bf 683d 4ed9 203d 4896 cf3c
00000020: 7e48 1abd 6611 5c3d 7cde 8c3c 68c4 79bd
00000030: 224f 76bd bc59 cdbc dc26 a7bc 28f4 543d
00000040: 3421 2b3d 2c5c 1abd 0045 843a 42d0 133d
00000050: f4e2 eebc d0b5 7dbd f2d5 1bbd d4c3 5f3d
00000060: c038 813c 8604 0d3d d085 54bc 000b 223d
00000070: a882 103c 6cd2 4ebd 3017 cf3b 76f4 1dbd
00000080: d20c 433d caa2 603d 18be 263d 4494 863c
00000090: c034 a13b 94c4 2abd d298 663d 6e93 723d
000000a0: 6898 1abc 8047 e7bb 7289 17bd 58d5 053d
000000b0: b632 36bd 7069 0abc 7829 fc3c f8ac c43c
000000c0: e646 54bd 1037 ccbc 1045 4b3c d008 86bc
000000d0: 502e 083c c0de c1bc a0fb 8bbb 0066 1b39
000000e0: d441 f93c 1a2e 1abd 5c2a 5fbd 0009 a3bc
000000f0: d0e1 a53b c015 bcbc 6413 29bd 880d 6bbd
00000100: 1ca0 223d 4072 06bb fe0c 283d 264f 373d
00000110: 50b5 d13b 4e52 13bd c6f6 7fbd 4288 28bd
00000120: 9002 a2bc 00d0 473c d496 6a3d 08a7 623d
00000130: 40da bcbb 88c5 3a3d c816 03bd a44c a03c
00000140: 5015 03bc 66b7 79bd d85f b33c e291 31bd
00000150: 2cf1 9abc e4e8 ba3c 503b a0bb f050 9d3c
00000160: c01c a4bc 7ee7 553d d043 863b 9633 3fbd
00000170: 2624 5fbd 5410 453d f848 0c3c 28f8 ca3c
00000180: 9e08 1fbd 4090 e6bc 046c b5bc 2247 2f3d
00000190: 8879 5ebd f61f 7e3d 6446 2e3d d012 533d
000001a0: 9020 9bbc 6eba 29bd 9ef0 7d3d bced 63bd
000001b0: 081f 943c 404f 69bd e051 033c 98a9 28bd
000001c0: ca3d 39bd 9018 cebb 8eb2 023d 446c 94bc
000001d0: 40fe 3bbb 9ece 7c3d 2836 2abd c0f8 4cbd
000001e0: f48b 84bc d87f 353c 3274 133d ccff b7bc
000001f0: 8036 80bc 3c54 81bc 1440 453d e8e7 eebc
00000200: a8cf b53c e0e0 66bc 64ff 5b3d 6083 78bb
00000210: 9824 bc3c ceaf 0abd 0c8a 71bd a0f8 abbb
00000220: 8081 45ba 2ed4 7e3d 28c5 003c c291 563d
00000230: 982d 5cbd 0a75 57bd 0432 d5bc 0ccc a0bc
00000240: 28d5 eebc ee28 09bd 60d2 563d b003 b03b
00000250: 1850 e8bc 34d5 d1bc 3ac7 53bd 884b a7bc
00000260: 00f6 f73c f8d3 c8bc 2c44 313d 589a 11bc
00000270: e8cb c93c 100b 203d 36be 083d 7c8c 633d
00000280: 4082 15bc cc8b b1bc 26c5 31bd 0834 6bbd
00000290: 54e2 ab3c 085a 4d3d 182d 2bbd 9868 3c3c
000002a0: ce90 32bd ceaf 28bd 003f e53c acb8 7dbd
000002b0: 78b0 36bd 82ee 633d 3c8b 4a3d 9c98 36bd
000002c0: ec85 00bd 0696 39bd 40c0 90bc 5ce4 983c
000002d0: 0037 94bb 20e7 d1bb 2cfd f7bc d0b6 b83c
000002e0: 6838 0a3c 509b 7abc 48be 3cbc 501b 193c
000002f0: 6007 583d 48d6 eabc b409 b2bc 5838 64bd
00000300: 5acd 403d de82 49bd b4a0 c13c e4b3 b2bc
00000310: 70c1 fabc b0a5 77bd c097 353d dc6d 13bd
00000320: 6a47 33bd d4a2 6bbd ea1d 37bd cec7 52bd
00000330: c089 91bc fef5 7d3d f83b 7d3c 406e 04bd
00000340: 6c17 9f3c 7033 1e3d a2b0 54bd 52be 01bd
00000350: 1236 48bd ecf1 2d3d 0084 043a 5a2f 763d
00000360: 00c0 8636 407b c13a 90a4 f83b b0fb 783d
00000370: acec 00bd 3046 dcbc 289b 47bd 2466 913c
00000380: 1095 6cbd a0fd 773d e065 03bc 3690 37bd
00000390: 82fd 3e3d 20e1 4e3c b63c 12bd 702b b23b
000003a0: 6092 b5bb b41d 2abd 4868 ffbc e8ae 2a3d
000003b0: 9493 173d fc63 7bbd 78f7 4bbc a225 7b3d
000003c0: 5871 adbc cccf dd3c a2f3 3cbd 4043 22bb
000003d0: 7c13 36bd 1eb7 523d 08ab df3c 3c20 c2bc
000003e0: 30e8 f23c 8014 30bb d039 15bd b0ab 953c
000003f0: 143f 923c 9002 27bc d067 ec3c f4fe 543d

4.weight f4 [35, 256]
-0.045336187 -0.00593251 0.039025597 0.06167943 0.05536908 -0.019627146 0.02743315 0.050250553
-0.0010236651 -0.000804089 0.027323298 -0.040794328 -0.031442225 -0.053086527 0.037610866 0.04676763
0.032505497 -0.0020619854 0.05111406 0.00574854 0.03706661 -0.018267028 -0.060928695 -0.050941654
-0.031819828 -0.027305558 0.05684779 -0.047783434 0.026086047 0.048530035 -0.018285811 0.041414887
-0.02678509 -0.02760204 0.06077923 -0.0043550283 0.029051937 0.034303762 -0.020746842 0.027786158
-0.035638608 0.05924309 -0.0031439438 -0.0004657209 0.030563332 -0.025977902 -0.0087552145 -0.031998783
0.021814011 -0.034981027 0.044890888 0.047681056 -0.041070923 -0.009203784 0.013138466 0.058257945
0.02683273 -0.016368799 -0.06134063 0.028202541 -0.048966072 -0.03941475 0.00036512315 -0.0020574331
0.058984764 -0.006649725 -0.04005006 -0.023230225 -0.025486842 -0.030288823 0.009261303 0.043041453
0.010294378 -0.03452383 0.03397672 -0.025757559 0.061625794 -0.03596998 -0.024584256 -0.053912863
0.050119296 -0.026028447 0.006960988 0.049578995 0.04789424 0.060983382 -0.053883865 0.045943864
-0.057317153 -0.014395438 0.0384397 0.0051283613 0.05425191 0.0033011138 0.044579506 0.026015423
0.043574087 0.028511532 -0.03511273 0.040741973 -0.018885747 -0.01364316 -0.06143704 0.04583832
-0.051659875 0.03289143 -0.028228872 -0.032268897 0.015365072 0.034331582 0.051249735 0.023777544
0.044192806 0.043643765 -0.0047460347 -0.0007019043 -0.007515438 0.03321833 -0.0227255 -0.01630281
-0.01978191 -0.0014040768 -0.05677434 0.05098646 -0.050184287 0.030906364 0.012830235 -0.058607653
0.016145863 0.045303546 0.015295796 0.03268344 0.020371288 -0.022909097 -0.011297211 -0.055269234
0.020932876 -0.042687505 -0.020949297 0.034225374 -0.059986368 -0.007026814 0.061425224 -0.033212885
-0.0269638 0.00090645254 0.042565145 0.031621628 0.0019103661 0.029049002 -0.05910915 -0.0016759336
0.0568332 0.015111253 0.0015493259 0.033057146 -0.051735952 0.036347404 -0.054572597 -0.02790545
0.045982882 -0.05966255 0.013895914 0.00994049 -0.011905849 0.05805759 0.04520362 0.040719375
-0.028119698 -0.021015897 0.016859971 -0.04128763 0.022406884 0.039937854 0.011184663 -0.00021083653
-0.036519796 0.000403516 0.035720147 -0.026070975 -0.060220025 0.018102072 -0.05682779 -0.0049960017
-0.05101584 -0.020071775 0.04412421 0.0065249056 -0.044830233 -0.048946656 -0.051920645 0.033017755
-0.047437064 -0.05777432 -0.0011940002 0.057735622 -0.010876045 0.015968792 -0.0348424 0.02317477
-0.057887696 -0.059484117 0.052839138 -0.015634298 0.046251923 -0.01541961 -0.052606247 -0.0368049
0.035245992 0.054006934 0.013801582 -0.010124393 -0.023420423 -0.026879258 0.047572322 0.0036610216
0.024919115 0.0042300746 0.0357071 0.0032595918 0.036373474 0.020200886 -0.05988595 -0.044562936
-0.03605944 -0.045047477 0.01744286 0.041640118 0.024174497 -0.03185787 0.025728732 -0.041672602
-0.039277464 0.051556967 0.055469044 0.02912096 0.03540478 -0.05975394 0.029827759 -0.012678966
0.023823068 -0.007831268 -0.0029410273 0.0024493188 -0.011239357 0.0033719093 -0.06241376 0.040742524
-0.0050188154 0.025310718 0.022420533 0.052536845 0.057444252 -0.017982349 0.05147504 -0.053994887
00000000: 70b2 39bd 8065 c2bb 4ed9 1f3d 92a3 7c3d
00000010: b0ca 623d 1cc9 a0bc 7cbb e03c 86d3 4d3d
00000020: 802c 86ba 80c9 52ba 1cd5 df3c f417 27bd
00000030: 90c9 00bd 4271 59bd da0d 1a3d 6a8f 3f3d
00000040: 7c24 053d 6022 07bb fa5c 513d 405e bc3b
00000050: 28d3 173d bca4 95bc 5e90 79bd 32a8 50bd
00000060: 8255 02bd e8af dfbc 3ad9 683d 90b8 43bd
00000070: 68b2 d53c 6ec7 463d 20cc 95bc a8a2 293d
00000080: 686c dbbc ac1d e2bc a4f3 783d a0b4 8ebb
00000090: 54fe ed3c 1a82 0c3d 48f5 a9bc cc9f e33c
000000a0: caf9 11bd e2a8 723d a00a 4ebb 002c f4b9
000000b0: f45f fa3c 9ccf d4bc 0872 0fbc 2811 03bd
000000c0: 4cb3 b23c 4448 0fbd 82df 373d 364d 433d
000000d0: fc39 28bd 78cb 16bc b842 573c e29f 6e3d
000000e0: 50d0 db3c dc17 86bc 5040 7bbd 0409 e73c
000000f0: a690 48bd 5c71 21bd 006e bf39 00d6 06bb
00000100: 029a 713d f0e5 d9bb 880b 24bd 504d bebc
00000110: c8c9 d0bc 4420 f8bc b8bc 173c 3c4c 303d
00000120: c0a9 283c dc68 0dbd 2c2b 0b3d 8401 d3bc
00000130: 546b 7c3d 4255 13bd ec64 c9bc bcd3 5cbd
00000140: e449 4d3d 9c39 d5bc 0019 e43b 5813 4b3d
00000150: c02c 443d b6c9 793d 54b5 5cbd a22f 3c3d
00000160: 64c5 6abd d8da 6bbc f272 1d3d d00b a83b
00000170: 4037 5e3d 8057 583b 0099 363d 4c1e d53c
00000180: be7a 323d 0491 e93c 5ed2 0fbd 0ee1 263d
00000190: 48b6 9abc 9087 5fbc 68a5 7bbd f6c0 3b3d
000001a0: 4e99 53bd 2ab9 063d 3c40 e7bc 642c 04bd
000001b0: c8bd 7b3c 469f 0c3d 3eeb 513d 20c9 c23c
000001c0: 8403 353d cec3 323d a084 9bbb 0000 38ba
000001d0: 1044 f6bb f20f 083d d42a babc 788d 85bc
000001e0: ac0d a2bc 0009 b8ba 368c 68bd 2ed7 503d
000001f0: 0a8e 4dbd 582f fd3c e835 523c 940e 70bd
00000200: 5444 843c 3690 393d 389b 7a3c 12df 053d
00000210: b0e1 a63c dcab bbbc f017 39bc fe61 62bd
00000220: 6c7b ab3c 18d9 2ebd dc9d abbc e82f 0c3d
00000230: 44b4 75bd 3041 e6bb 0499 7b3d 3c0a 08bd
00000240: 30e3 dcbc 009f 6d3a ca58 2e3d ae85 013d
00000250: 4065 fa3a 2cf8 ed3c 701c 72bd 00ab dbba
00000260: eec9 683d 3095 773c c012 cb3a ee66 073d
00000270: 14e9 53bd 04e1 143d 8487 5fbd f899 e4bc
00000280: 8c58 3c3d b860 74bd b0ab 633c 70dd 223c
00000290: c010 43bc cccd 6d3d 6e27 393d 5cc9 263d
000002a0: 485b e6bc 8829 acbc ec1d 8a3c 381d 29bd
000002b0: a48e b73c e095 233d e03f 373c 0014 5db9
000002c0: c895 15bd 008f d339 4a4f 123d cc92 d5bc
000002d0: 46a9 76bd cc4a 943c 42c4 68bd 80b5 a3bb
000002e0: fcf5 50bd 906d a4bc 96bb 343d e0ce d53b
000002f0: e89f 37bd 4a7c 48bd beaa 54bd a03d 073d
00000300: 5e4d 42bd c4a4 6cbd 0080 9cba 307c 6c3d
00000310: 7031 32bc fcd0 823c e8b6 0ebd 04d9 bd3c
00000320: a61b 6dbd 9ea5 73bd da6d 583d 8013 80bc
00000330: a872 3d3d 88a2 7cbc a679 57bd bcc0 16bd
00000340: 1a5e 103d 6036 5d3d 0820 623c c8e0 25bc
00000350: 30dc bfbc e431 dcbc 32db 423d c0ed 6f3b
00000360: 2c23 cc3c 709c 8a3b 9c41 123d e09e 553b
00000370: 5afc 143d 547c a53c f84a 75bd a087 36bd
00000380: 10b3 13bd b483 38bd 54e4 8e3c d48e 2a3d
00000390: 9809 c63c 667d 02bd 10c5 d23c e4b0 2abd
000003a0: 68e1 20bd 662d 533d 8233 633d 148f ee3c
000003b0: 9a04 113d 8cc0 74bd 5859 f43c 70bb 4fbc
000003c0: 9828 c33c b84e 00bc 40be 40bb c084 203b
000003d0: 4825 38bc 40fb 5c3b 92a5 7fbd a2e1 263d
000003e0: e074 a4bb 6c58 cf3c 44ab b73c e030 573d
000003f0: aa4a 6b3d b84f 93bc 7ed7 523d be29 5dbd

4.bias f4 [35]
0.04468254 -0.017091975 -0.047876865 0.044458725 0.010974422 0.03381364 -0.015774935 0.036241323
-0.0036892071 -0.041206755 -0.02764856 -0.042842552 0.014745697 0.033730827 -0.0017435476 0.02317588
-0.0344761 -0.0002212897 -0.04872635 0.059469506 0.00060301274 -0.055691868 -0.0364386 -0.055559747
0.0015649348 0.043569803 0.013857096 0.057609268 0.053444743 0.02883441 -0.04237084 0.01842855
-0.04104521 0.044641584 -0.0012152568
00000000: 0a05 373d 7804 8cbc 881a 44bd 5a1a 363d
00000010: 10ce 333c 2c80 0a3d 703a 81bc c871 143d
00000020: a0c6 71bb 6ac8 28bd 3c7f e2bc ac7b 2fbd
00000030: f097 713c 5629 0a3d c087 e4ba 58db bd3c
00000040: d036 0dbd 000a 68b9 4895 47bd 4c96 733d
00000050: 8013 1e3a 281d 64bd a440 15bd 9e92 63bd
00000060: 801e cd3a 4076 323d e008 633c b2f7 6b3d
00000070: e0e8 5a3d 2436 ec3c 0c8d 2dbd 78f7 963c
00000080: 061f 28bd 18da 363d 4049 9fba
